models/a2c_actor_acrobot.pth (torch, 142231 bytes, 6 tensors)

layer1.weight f4 [256, 6]
000000 2a 4c ed 3d 56 cc 14 be 1a 6e c5 3e a2 59 ac 3e
       0.11586793 -0.14531073 0.38560563 0.33662134
000010 38 19 99 bd 07 8b a0 be 93 6f 2d bd 9a 89 60 3e
       -0.07475513 -0.3135607 -0.042342734 0.21927491
000020 ea 6a 14 3d e2 7d c0 3e c3 a6 a0 be 90 45 cc 3e
       0.036234774 0.3759604 -0.3137723 0.39896822
000030 78 af 8a 3e 5a 05 91 be 5b 88 5e 3d 07 62 e5 be
       0.27086997 -0.28324395 0.054329257 -0.4480135
000040 5c 94 8d be 9f 45 7f 3d 3a 19 aa be 2a 79 d6 bd
       -0.27652252 0.062322255 -0.3322237 -0.10472329
000050 8f 6f 54 3e c8 bd 91 3d c6 25 aa 3c e6 3b 80 be
       0.20745681 0.07116276 0.020769965 -0.250457
000060 4d 1c 60 3e ff 77 87 be 82 ac 4a 3d 8d 9b 54 be
       0.21885796 -0.26458737 0.049480923 -0.20762463
000070 70 ec d9 be 4d e7 94 bc 6e c9 6f 3e 47 37 64 3e
       -0.425632 -0.018176699 0.23416683 0.22286712
000080 45 4b 2b be 6d 1b 34 3e b0 88 46 3e d6 c9 72 be
       -0.16727932 0.17588587 0.1938808 -0.23709807
000090 bd 1b a0 3e 4d 42 77 3d 81 ff b1 be f4 6e 86 3e
       0.31271163 0.060365964 -0.34765247 0.26256526
0000a0 c5 c9 ba be 6b c8 3f be 79 1e 36 3d 91 20 b1 be
       -0.36482063 -0.18728797 0.044462655 -0.3459516
0000b0 62 c9 5a be c3 f2 ae be 3e 40 c2 bd b7 a1 61 3d
       -0.21365884 -0.34169587 -0.094849095 0.055085864
0000c0 8f 6b da bd 66 86 30 3e 8c 1c ae be 07 48 61 3e
       -0.106650464 0.17238769 -0.34006155 0.22000133
0000d0 f0 92 94 be 71 13 9c be 89 df cc be c0 74 73 be
       -0.29018354 -0.30483583 -0.40014294 -0.23775005
0000e0 01 6e 63 3e 64 06 3e 3e 1d fb 3c 3e 91 6d da 3e
       0.22209932 0.18557125 0.18455167 0.42661718
0000f0 47 10 4b be 59 1c 56 be 94 dd 71 be ab 38 d1 3e
       -0.19830428 -0.20909251 -0.23619682 0.40863547
000100 3a 80 ef bd a2 50 d5 be 3e 87 97 be 7f d1 19 3e
       -0.11694379 -0.4166308 -0.2959537 0.15021323
000110 3f 23 26 3e 4e 28 4b bd 48 80 56 3d 36 13 37 3d
       0.16224383 -0.049598984 0.052368432 0.044696055
000120 3f 77 c9 3e 11 c1 6b 3d e1 b2 6b be 9b 17 01 3e
       0.3934879 0.05755717 -0.23017456 0.12606661
000130 19 f1 d5 be b3 7f 49 bd 4c 56 cf be 89 96 99 3e
       -0.41785505 -0.04919405 -0.40495527 0.29997662
000140 5d 0a 6a be 9c 5b bb 3c 0c 72 99 bd db d8 b8 be
       -0.22855516 0.022870831 -0.07492456 -0.36102948
000150 91 01 94 3d 2d 75 58 3e 63 7c 21 be 43 0b 39 3d
       0.07226861 0.21138449 -0.15770106 0.045176756
000160 ea 1b 17 3d 18 a3 20 be 0c 99 bb 3e 62 3e 99 3d
       0.036891855 -0.15687215 0.36640203 0.07482602
000170 69 91 b6 be 58 5e d6 3e 2b a7 13 3e d7 15 93 bd
       -0.35657814 0.41868854 0.14419238 -0.071819
000180 3d 3f 6f bd 1e d6 e0 be da d3 9b 3e c7 6f 65 3e
       -0.058409918 -0.43913358 0.30435067 0.22405921
000190 46 e1 b1 3e 4a 57 22 be 7c 54 18 bd 2e 34 99 3e
       0.34742182 -0.1585361 -0.037189946 0.29922622
0001a0 3c 28 c6 3e b0 88 20 3d bd d8 92 bc 9f bd 7e 3d
       0.3870257 0.039192855 -0.017925614 0.062192556
0001b0 79 99 c0 3d c1 d8 21 3e b5 5c b7 be e9 a5 7d 3d
       0.094042726 0.15805341 -0.35812917 0.061925802
0001c0 b6 31 57 be 7b 5b bd be 6b 92 14 3e 3f 86 98 be
       -0.21015057 -0.36983857 0.14508979 -0.29789922
0001d0 8d 99 c4 bc c1 c2 2c 3e 29 48 00 be 17 ad 96 bd
       -0.023999 0.16871168 -0.12527527 -0.07357233
0001e0 de fa 86 3e 18 eb 77 be 0c 1f 19 3e c8 23 41 be
       0.2636327 -0.24210775 0.1495325 -0.18861306
0001f0 7d 06 b0 3e 24 d0 c6 3e d7 8a 80 be 81 ae 54 3e
       0.3437995 0.38830674 -0.25105926 0.20769693
000200 17 b8 75 be f5 79 8d be 0a 22 5f 3e 12 9e b4 3e
       -0.23996006 -0.27632108 0.21790329 0.35276848
000210 0d 75 04 be 76 d3 ef 3d 8d 69 b3 3e cf d9 c0 bd
       -0.12935276 0.11710255 0.35041466 -0.09416544
000220 87 1f 86 3e 17 13 66 3d d0 35 f3 3d 21 2a ca 3e
       0.26195928 0.05617055 0.11875498 0.39485267
000230 e2 b2 4b be 95 42 39 be 43 6d 20 3e ec 62 18 3e
       -0.19892457 -0.18091805 0.1566668 0.14881486
000240 78 d1 86 be e5 1b 76 bd f2 0e ea bd 78 d7 b5 3e
       -0.26331687 -0.060085196 -0.11428632 0.35515952
000250 0e 74 f3 bc 74 1a b7 3e ea 5d 62 be 5c 61 c2 3d
       -0.029718425 0.3576237 -0.22106138 0.09491226
000260 17 f2 43 be fa c0 86 be 4a ff 9c be 8e 92 50 be
       -0.19135319 -0.26319104 -0.3066352 -0.20368406
000270 ef d8 c9 be 8b aa 80 ba 9b 0c 78 be 9f d4 d9 be
       -0.3942332 -0.0009816451 -0.24223559 -0.4254503
000280 84 e2 75 bd 83 63 64 3e a9 83 2f 3d a5 46 2d 3e
       -0.060030475 0.22303586 0.04285017 0.1692148
000290 17 99 a5 be 14 cd 1a bd 90 95 5d 3c e9 6e ac 3d
       -0.3234336 -0.037793234 0.013524428 0.08419592
0002a0 53 49 83 3e f3 d8 c5 be a4 46 32 3e 16 2a d4 3e
       0.2564188 -0.38642082 0.1740976 0.4143836
0002b0 d1 07 4d bd c5 d2 9a be e8 4c ae be df 81 5b be
       -0.050056282 -0.3023893 -0.3404305 -0.2143626
0002c0 f5 de 8a be 22 d9 9f be 6c 6c a9 3e fb e4 c9 bd
       -0.27123228 -0.31220347 0.33090532 -0.09858128
0002d0 e7 ba 3c 3e f3 33 82 ba 16 23 95 be 7d 36 e7 3e
       0.18430673 -0.0009933695 -0.2912833 0.4515876
0002e0 7b 18 25 3e 5a a2 46 be 5c 27 47 be 77 c4 6c bd
       0.1612262 -0.1939787 -0.19448608 -0.05780455
0002f0 8f da b5 be 8e 68 ec 3d 32 8e c8 bd e3 ad 15 be
       -0.3551831 0.1154338 -0.097927466 -0.14617114
000300 3a dc 17 be 59 56 09 bd 8b 6c 88 3d 87 b7 3f be
       -0.14830104 -0.033529613 0.06661328 -0.18722354
000310 ca 06 1e be e7 6e 0a be 24 16 ba 3e 21 95 70 be
       -0.15432277 -0.13518868 0.36345017 -0.23494388
000320 d8 fe 9a be 24 12 0d 3d c6 2d 29 3d e5 6b 4c 3e
       -0.30272555 0.03444113 0.04130342 0.19963033
000330 a6 2d a8 be 2c 8c 77 be 3f ae 55 3e f9 bf cf be
       -0.32847327 -0.24174565 0.20867251 -0.4057615
000340 50 54 af be 86 11 3c 3e da 0d 91 3d dc d1 a7 be
       -0.34244013 0.1836606 0.0708272 -0.32777297
000350 1b 8b 99 bd 20 11 c4 bd 02 2f 5f be ee ad 66 3d
       -0.074972354 -0.09573579 -0.21795276 0.056318216
000360 e0 84 d0 3d d9 d8 fc 3d c4 ed 7b 3e e6 90 e4 3c
       0.10181594 0.12346048 0.24602419 0.027901124
000370 ce 17 c2 3e 71 9c 8a bd ef 62 b5 3e 1d fe a8 bd
       0.37908787 -0.0676812 0.35427043 -0.08251593
000380 c5 90 b1 be 84 85 8a 3e 65 35 2c 3e a1 79 58 3e
       -0.34680763 0.2705499 0.16817243 0.21140148
000390 c3 27 82 be 57 33 aa be aa b9 88 3e b3 75 a5 bd
       -0.2542096 -0.33242294 0.2670415 -0.0807909
0003a0 df 49 fa 3c 6b 1e a8 be b3 b4 86 3e e2 50 13 bd
       0.030552803 -0.32835707 0.26309738 -0.035965808
0003b0 5e 34 53 3e b2 87 94 be a6 79 34 3c 96 40 16 3e
       0.20625445 -0.29009777 0.011015331 0.14673075
0003c0 39 e1 e1 bd 0f f6 fd bd 83 d7 c0 be 14 0f 59 3e
       -0.11029286 -0.124004476 -0.37664422 0.21197158
0003d0 26 b9 b4 be 17 15 a3 3e 45 21 3d be f2 aa b3 be
       -0.35297507 0.31852028 -0.18469723 -0.35091358
0003e0 34 0c 44 be 18 fe 9f 3e 90 54 9b 3e de 9e ce be
       -0.1914528 0.31248546 0.30337954 -0.4035558
0003f0 2b 55 88 3e bd 82 8e 3e ef 38 ab 3e 48 00 15 3e
       0.26627478 0.2783412 0.33441874 0.14550889

layer1.bias f4 [256]
000000 15 a4 9f be 3a 94 99 be 63 e9 13 3e a4 2d 78 be
       -0.31179872 -0.299959 0.14444499 -0.2423616
000010 57 82 b5 be 31 c2 98 3e 73 90 3c be f0 f6 1c be
       -0.35451004 0.29835656 -0.18414478 -0.15328574
000020 54 83 c1 be f2 f4 b5 3e dc a7 fa 3e 10 3b 75 3d
       -0.37795508 0.3553844 0.48956192 0.05987078
000030 0c 48 56 3e cd 4f db bd 88 b7 d3 bd 31 16 c8 3e
       0.20925921 -0.1070858 -0.1033774 0.3907943
000040 db f1 03 be c8 ea ae bc 46 11 69 bd 13 7c 73 3e
       -0.1288523 -0.021352187 -0.05690124 0.237778
000050 af 8e 8c be ee f9 e8 bd f0 a5 bc 3c 4e 7c ac 3d
       -0.2745261 -0.11375795 0.023028344 0.08422147
000060 a7 e1 94 be 2f 0d 6c be ab 3d 1f be cf c5 a0 be
       -0.2907841 -0.23051904 -0.15550868 -0.31400916
000070 70 70 f7 bd 3c dc e8 bc 18 e2 c5 3e 4b 6b c3 3e
       -0.120819926 -0.028425328 0.38649058 0.38167796
000080 ee ab 75 3e 36 37 de 3e 27 b9 91 3e bd e9 99 3e
       0.23991367 0.43401498 0.28461573 0.3006114
000090 7f 10 80 bd c9 51 89 be 09 2f 0b 3e 94 90 ff bd
       -0.062531464 -0.2682021 0.13592161 -0.12478748
0000a0 69 98 2d bd 7c 7b 78 3d d1 61 2e be 93 c3 bb 3e
       -0.042381678 0.06066464 -0.17029501 0.3667265
0000b0 81 95 1f 3e 10 87 86 3e 5a a1 87 be d5 61 8b 3e
       0.15584375 0.2627492 -0.2649029 0.27223077
0000c0 39 bd f5 3c b6 4f 35 3e 01 7b a7 bd 2d da a5 3d
       0.029997455 0.17706189 -0.08177758 0.08098254
0000d0 3e 10 b3 3b 12 87 bf be 3f d6 3b 3b e3 d8 ca 3c
       0.0054645827 -0.37407738 0.0028661636 0.024761623
0000e0 88 ef a1 3e 8d df ed bc 2b e8 f9 3d a7 71 17 be
       0.3162806 -0.029037261 0.12202486 -0.14789449
0000f0 1e 9d be be e9 49 c0 3d 9a da 62 3d 60 ec 0b 3e
       -0.37229246 0.09389097 0.055384256 0.13664389
000100 68 78 30 be 88 d8 53 bd 87 81 35 3e a2 3d d1 bd
       -0.17233431 -0.051720172 0.17725192 -0.10216834
000110 9e e3 dd be 55 d9 02 be 20 25 c7 3e cc 47 cf 3e
       -0.4333772 -0.12778218 0.38895512 0.40484464
000120 eb 75 a9 bd 14 42 af 3e be 1d a4 3d 9a 83 21 be
       -0.08274444 0.342301 0.08013485 -0.15772858
000130 49 c8 d8 bc e8 25 71 be 42 7a a6 3e 28 84 a9 be
       -0.02646269 -0.23549616 0.3251515 -0.3310864
000140 52 42 13 3e 59 26 73 be 47 fd c4 be ae d2 65 be
       0.14380768 -0.23745097 -0.38474485 -0.22443649
000150 33 d7 b7 bc dd 23 3e be 24 e4 bf 3e 8d 50 5d bd
       -0.022441482 -0.18568368 0.37478745 -0.054031897
000160 c2 af 09 be 77 1f c7 3e d9 71 87 be b6 ee b8 3e
       -0.13445953 0.38891193 -0.26454046 0.36119622
000170 03 a3 33 3d ff 9c 95 be da 7e 33 be 1f e3 58 3e
       0.043856632 -0.2922134 -0.17528859 0.2118039
000180 23 5b a2 3e 96 65 81 3b 42 af 33 be 9f e4 4e be
       0.31710157 0.0039488776 -0.17547324 -0.202044
000190 4b 07 3e 3e fb a3 79 be 8d d6 7a be 2c 8a a3 be
       0.1855747 -0.2437896 -0.24495907 -0.31941354
0001a0 e0 4e 2f 3e 46 49 c3 be bb 9d 3f be 94 da 8c 3d
       0.17119932 -0.3814184 -0.18712513 0.06877628
0001b0 df fb b5 3e 1b 19 35 3c 8b 49 a1 3e b5 bf d1 3d
       0.35543725 0.011053349 0.3150142 0.10241643
0001c0 29 89 55 3e 06 5f 91 be a4 f0 af be 21 d7 66 3e
       0.20853104 -0.2839281 -0.34363282 0.22543003
0001d0 cf f7 d7 be 36 35 80 3e 91 43 ab 3e 50 c3 a6 be
       -0.4218125 0.25040597 0.33449987 -0.32570887
0001e0 70 1a 67 be 53 73 31 3e df 80 8b be e0 14 65 3e
       -0.22568679 0.17329149 -0.27246758 0.22371244
0001f0 d2 53 25 bd 62 30 45 be 36 ca 75 be f0 1f 73 3e
       -0.04036314 -0.19256738 -0.24002919 0.23742652
000200 d0 c7 2f be b0 bd 77 be 15 83 b4 be 16 41 54 be
       -0.17166066 -0.24193454 -0.35256258 -0.20727953
000210 6d b1 a4 3e 9e 8c 96 be 93 bf 2e 3b e5 55 b7 3e
       0.32166615 -0.29404157 0.002666448 0.3580772
000220 56 aa d6 bd 0a d5 a0 be be 43 b5 bd 3e f0 96 3d
       -0.10481708 -0.31412536 -0.088508114 0.07370041
000230 0e b8 b0 be 69 d9 29 bd de fe b1 be 7f d1 97 bd
       -0.34515423 -0.041467104 -0.3476476 -0.07413005
000240 39 0d 80 3e 4a 44 77 3c 89 14 d4 be 56 6b 2e be
       0.25010088 0.015091965 -0.41421917 -0.17033133
000250 98 76 df be 90 2c 9e be 1d d2 e0 3d 4d ec a9 3e
       -0.43645167 -0.30893373 0.10977576 0.33188096
000260 b2 74 8d 3e 7a a4 86 3e 87 76 3a 3e 22 05 cb be
       0.27628094 0.2629736 0.18209277 -0.39652354
000270 f8 ae de 3d d6 44 7a bd cc 3f 88 3e 57 75 bd bd
       0.108732164 -0.061100803 0.26611173 -0.092508964
000280 91 cb a6 3e c9 eb de 3c ab c5 bd 3e 8b e3 e6 bd
       0.32577184 0.02721204 0.3706487 -0.11273869
000290 d0 4c c3 3e d5 10 08 bc 2c 82 ee 3c d6 ac 7d be
       0.3814454 -0.008304794 0.029114805 -0.24772963
0002a0 ff de 19 3e 0f a7 bb 3e 67 70 d4 3e c2 83 cb 3d
       0.15026473 0.36650893 0.41492006 0.0993724
0002b0 36 cf 23 be 45 3d b0 bd 70 73 d3 be e3 ec 4a be
       -0.15997013 -0.08605436 -0.4129901 -0.19816928
0002c0 22 9a c5 3e 19 0c b7 3e be 89 c8 bc 45 4f d5 be
       0.38594157 0.35751417 -0.024479743 -0.4166204
0002d0 a4 e0 27 3d db 8a 0a be 8c d5 3f 3e b1 73 8b 3e
       0.04098572 -0.13529532 0.18733805 0.27236703
0002e0 01 7d 24 be a3 51 8f be 76 5f 63 be 32 18 a4 be
       -0.1606331 -0.2799197 -0.22204384 -0.3204971
0002f0 43 bb 41 3e 7c fe 8d 3d 9b 45 f8 3d 1c 8a 81 be
       0.18919091 0.06933305 0.12122651 -0.25300682
000300 f3 7d 11 3e 52 48 9d 3e bc 58 1a bd 1a 4e 42 3e
       0.14208202 0.3071924 -0.03768228 0.18975106
000310 d6 98 c8 bd d0 8e 54 be dd ef 56 3e d3 2b 94 be
       -0.09794776 -0.20757604 0.20989938 -0.28939685
000320 78 20 80 3e a1 22 76 3e cb 5b aa 3e bf 8a d2 3e
       0.25024772 0.24036647 0.33273157 0.4112148
000330 fd 61 96 be 61 ed c2 3d 45 37 cd be 9a c7 16 be
       -0.29371634 0.09517933 -0.4008123 -0.1472458
000340 70 92 05 3e a8 07 70 bd 4c b7 86 3a b2 43 fa bc
       0.13044143 -0.05860105 0.0010278015 -0.030549858
000350 bb 83 5c 3e 97 76 57 be 06 ef 9d be fb c3 85 be
       0.21534626 -0.21041332 -0.30846423 -0.26126084
000360 3f 24 a4 3e 9b 52 1f be 55 25 3d 3e 12 05 b5 3e
       0.32058904 -0.15558855 0.18471272 0.3535543
000370 80 20 ab 3d 45 9d 52 3e d6 23 a9 be 19 89 8d ba
       0.08355808 0.20567806 -0.33035153 -0.0010798305
000380 cb ac 50 3e 4c 5d 02 be 03 97 a5 3e c2 ba 22 3c
       0.20378415 -0.12730902 0.32341775 0.009932222
000390 6f 4e 2a 3c 91 f6 56 3e b9 f7 17 3e d6 6b c9 be
       0.010394677 0.20992495 0.14840592 -0.39340085
0003a0 f9 9d 25 be 1b c8 53 3e 05 ed 28 3e e9 90 15 b8
       -0.16173543 0.20681803 0.16496666 -3.5659326e-05
0003b0 ed 0d fa 3d fd 00 83 be 2d f3 f7 bd 02 3d df 3d
       0.122096874 -0.25586691 -0.12106929 0.10900308
0003c0 83 d6 a0 3b 24 aa c8 3e bc ae 98 3e a0 77 3b be
       0.0049083843 0.39192307 0.29820812 -0.18307352
0003d0 4e f9 1d 3e 73 fc 0e be e5 47 57 be 8d be c8 3e
       0.15427133 -0.13963489 -0.2102352 0.3920788
0003e0 c2 df 6c be 79 a7 6f be 07 6a 98 bd ba 50 6d be
       -0.23132232 -0.2340373 -0.07442098 -0.23175326
0003f0 79 58 7f 3e 1e ae 35 3e f0 e9 84 be 19 bb 7b be
       0.24936093 0.17742202 -0.2595973 -0.24583091

layer2.weight f4 [128, 256]
000000 15 cd 96 3c df 37 86 3d 32 01 8f bc f6 49 d1 bc
       0.018408338 0.06553625 -0.017456625 -0.025547963
000010 b0 32 72 bd bf 25 cd 3d 9b bf 92 3c 06 dc 53 bd
       -0.05913037 0.10016965 0.01791363 -0.051723503
000020 ce 2c f5 3c 16 63 ac bc 9b 4c 24 3d 50 2e ac 3c
       0.029928591 -0.021043342 0.04011212 0.021018177
000030 59 ea 43 bd 3a 32 ae 3c 35 e3 ac 3c 6c 1c 15 3d
       -0.047830913 0.021264184 0.021104435 0.03640406
000040 46 81 16 3e 04 12 31 bc 5d 85 96 3d f8 5d 75 3d
       0.14697751 -0.010807518 0.07349656 0.05990407
000050 e8 2a 28 3d e1 9f fa 3c 7f c8 13 bd 4d 74 8c bc
       0.041056544 0.030593814 -0.03607988 -0.0171453
000060 61 75 f1 3c 67 f8 9f b9 34 b0 39 bd 8a 11 5f bc
       0.029474916 -0.00030511917 -0.045334056 -0.0136150215
000070 88 ca 4f 3d 6d 33 c0 bc 4f ee ea 3d 73 e6 2f ba
       0.05073026 -0.023462022 0.11471235 -0.000671006
000080 6a 6f 93 3a 00 c1 72 bb 5f 23 62 bc 68 1b 18 3d
       0.0011248414 -0.0037041306 -0.013802378 0.03713551
000090 26 75 d1 3c 4a 23 4e 3d 4d b7 4f 3d 24 df 50 bd
       0.025568556 0.050326623 0.05071192 -0.050994053
0000a0 59 5d 3e 3d 7d 15 b7 3d 45 e4 97 3c cc 18 72 3d
       0.046475742 0.089396454 0.018541465 0.05910568
0000b0 44 23 41 3d 95 b5 86 3d b0 d3 57 3c 74 f8 32 bd
       0.047152773 0.06577603 0.013173029 -0.043693975
0000c0 0d 49 88 3c 58 0f ac 3d 54 63 85 3d 88 82 83 bd
       0.016636396 0.08401364 0.06513086 -0.06421381
0000d0 82 9e 91 3d a3 74 70 3d d9 d8 76 3d 7c 9a e5 3d
       0.07110311 0.058704983 0.060265396 0.11211106
0000e0 bd 43 d2 3d da 12 48 3d f7 a4 60 bd 7d 03 54 bc
       0.10266826 0.048846103 -0.054844823 -0.012940285
0000f0 d0 94 48 bd d8 cc 70 bd 52 82 92 3d ae 1e 8d 3d
       -0.048970044 -0.058789104 0.07153763 0.06890617
000100 75 de 34 bc b7 46 89 3c 97 da 98 bc 0e c4 a1 bc
       -0.011039366 0.016757352 -0.01865892 -0.019746806
000110 cb 2c 30 bb 8a 90 8c ba a9 9e 4a bd 72 3c 16 3d
       -0.0026882167 -0.0010724228 -0.049467716 0.03667874
000120 52 35 23 bd 45 1c 98 bc 28 2d d0 bc d7 66 17 3c
       -0.039845772 -0.018568167 -0.025412157 0.0092408275
000130 da 90 3b 3d ea bc 03 3c a4 38 88 3c bc 44 74 3c
       0.045792438 0.008040646 0.01662857 0.014908966
000140 42 79 b6 3c f6 a4 83 3d cd d0 a2 3c aa 9d 3c 3d
       0.022274617 0.06427948 0.019874955 0.046048798
000150 1f 05 47 3d 55 8c 0a 3d f4 de 86 3d f2 6f 52 bd
       0.04858887 0.033825237 0.06585494 -0.05137629
000160 17 d8 6a bd ec 48 21 3d 61 36 18 3d 89 e9 98 3c
       -0.057334986 0.039376184 0.037161235 0.018666046
000170 4d 69 30 3d 07 ed 94 bd a3 87 b7 39 c1 7e 11 3d
       0.043069173 -0.07271772 0.00035005537 0.035521273
000180 86 48 ad 3c c3 6c 49 3c 56 88 02 3d e2 8d c5 ba
       0.021152746 0.012293997 0.0318683 -0.0015072192
000190 f2 35 9a 3b dd 17 ff bd 78 8b 46 bb 9b aa 2c bd
       0.004706138 -0.124557234 -0.0030295532 -0.04215489
0001a0 f1 36 8a 3d 23 4f 0c 3d 23 9c a4 bc 47 3b 97 bb
       0.067487605 0.03425516 -0.020093983 -0.0046152207
0001b0 ca fb 22 bd b0 c6 b1 3c a9 27 f6 37 d7 74 fb 3d
       -0.039790906 0.021701187 2.9343953e-05 0.12278145
0001c0 a9 e1 a1 bd d8 67 cb bd 78 6e 2a 3c cb ea d7 bd
       -0.079043694 -0.09931916 0.010402314 -0.1054283
0001d0 04 04 d5 bc 3c 9f 8e 3a be 58 19 bd 1b c1 9c 3c
       -0.026002891 0.0010881196 -0.037438147 0.019135049
0001e0 39 39 5b bd 8d 96 27 3d f4 04 e0 bc db 3a 6d 3d
       -0.05352137 0.04091506 -0.027346112 0.057917457
0001f0 0c c7 31 bd 1d af 3c bd dc 81 e2 3d c2 60 44 3c
       -0.043402717 -0.04606544 0.11059925 0.0119859595
000200 f2 5c 25 bd fa d7 5c 3a 66 ea 5a 3d 1e ca 97 3d
       -0.040371843 0.0008424517 0.053446196 0.07411598
000210 45 e9 59 3d d6 06 cf 3c 0c f0 d9 3c 61 9c 90 3d
       0.05320098 0.025271814 0.026603721 0.07061077
000220 1a 10 fb bc 6f a8 21 bd 06 e5 51 3d 0a a5 10 bd
       -0.030647326 -0.03946727 0.051243804 -0.035313644
000230 41 30 d9 3a 63 32 35 3d 24 63 6c 3d a5 6f 0b 3d
       0.0016570167 0.044237506 0.057711735 0.03404202
000240 d0 1f 3f 3d 45 53 57 bd 06 64 84 bd 1c 04 5f 3d
       0.0466612 -0.052569646 -0.064643905 0.05444728
000250 df 44 02 3d a1 ea 80 3c f1 c9 49 3d 83 4e 91 bd
       0.03180396 0.01573688 0.049264852 -0.07095053
000260 03 11 07 3d 8f 5d e7 bc 2f f1 0a 3d 0a 13 26 bd
       0.032975208 -0.028242854 0.033921417 -0.0405455
000270 68 90 63 3d 52 08 be 3c 9d 86 62 3d fb 6d 1b bc
       0.05555764 0.023197327 0.05530416 -0.009486671
000280 8f 80 a4 bd 7c ad b4 bc b4 ce a0 3d af 4e e6 3d
       -0.08032333 -0.02205538 0.078519255 0.112454765
000290 3d d8 5f 3d 03 e1 d6 3d 34 09 e9 3b a7 c5 c1 bc
       0.05464958 0.10492136 0.007111693 -0.023653818
0002a0 0e 3e d0 3c 5a 85 57 3d 2e 25 e5 3c 8c fb ba bb
       0.025420215 0.05261741 0.02797183 -0.0057062563
0002b0 1a 38 16 bd 6b 29 e6 3c 1e 5a 7c bc 2f 8e 34 bc
       -0.036674596 0.028095922 -0.015402345 -0.011020227
0002c0 c2 4a 91 3d f0 07 4a 3c 82 cb ee 3b 0a e9 96 3b
       0.07094337 0.012330994 0.0072874436 0.004605417
0002d0 4e ee e8 b9 ae e4 26 bd ab 8f a1 3d c9 da 76 3d
       -0.0004442804 -0.04074543 0.078887306 0.060267244
0002e0 d4 17 89 3d ae bb 49 bc e3 d0 20 3d f9 55 99 3d
       0.06693998 -0.012312813 0.03926171 0.07487101
0002f0 87 2a 18 bc e4 17 b7 3c 39 65 cf bc c1 c7 56 bd
       -0.009287483 0.02235026 -0.025316821 -0.052436594
000300 d3 72 43 bd 16 61 0b bc 33 1f fb bc d3 d4 b4 3c
       -0.047716927 -0.008507034 -0.030654525 0.022074139
000310 14 8c ac bc 88 2f fc bc f1 63 2a bd ca 1d ae bc
       -0.021062888 -0.030784383 -0.041599218 -0.021254439
000320 7b d0 48 bd 44 68 85 bd de 28 4c bd 5c 3e d9 bc
       -0.049026947 -0.06514028 -0.04984366 -0.026518993
000330 f3 dd d6 bd 36 07 79 3c 69 dd 37 3d 2e a6 c3 3d
       -0.10491552 0.015199473 0.044888888 0.09553181
000340 2a a8 e0 3d 8f 29 86 3c 80 e3 31 3d a7 3b 9e 3d
       0.10969575 0.016377239 0.04342985 0.077262215
000350 2e 74 ab bd e5 b2 7c 3c 23 db 25 bc 24 9d 0b 3d
       -0.08371769 0.015423511 -0.010123047 0.034085408
000360 2f e2 eb 3c a5 e2 81 3c 3f ac 78 3d a5 b1 6f 3d
       0.028794376 0.015855143 0.06071114 0.058519024
000370 ee 8c e0 3d c1 16 9c 3d 33 a7 94 bd 6a 8f 80 bc
       0.1096438 0.076215275 -0.07258453 -0.015693385
000380 bb 88 a3 bc 76 68 64 bd e6 2a 1c 3d 12 65 76 3d
       -0.01996266 -0.055763684 0.03812685 0.060154982
000390 d7 3a 3b bd f6 04 08 3e 2f dd 89 3d ed ea 94 bd
       -0.04571041 0.13283142 0.067316405 -0.07271371
0003a0 05 a2 42 bd 92 f7 51 3d 32 62 21 bc 6f 73 29 3c
       -0.047517795 0.051261492 -0.009850072 0.010342463
0003b0 61 8c b1 3d df 63 a4 3d 13 e5 a6 3c 8a 2d 28 3b
       0.08669353 0.080268614 0.020372903 0.002566191
0003c0 c0 d5 b1 3c 9b 16 3c bd ad 40 02 3d 11 b3 e0 3c
       0.02170837 -0.045919996 0.03179996 0.027429136
0003d0 c9 f0 81 3d 75 27 99 bc 8f 09 a8 3c b2 ba ae bc
       0.06344754 -0.018695572 0.02051237 -0.021329258
0003e0 6b 0c 95 3c b8 96 55 bd 3e f0 38 bd da eb 64 3c
       0.018194398 -0.05214569 -0.045150988 0.013972247
0003f0 19 bc 98 3d 50 f0 97 bd e5 76 1f bd 4d 1e fc bc
       0.07457752 -0.07418883 -0.038931746 -0.030776167

layer2.bias f4 [128]
000000 14 17 70 bc 7d b8 ce bc 78 b0 be 3d 60 ce 7b bd
       -0.01465394 -0.025234455 0.093110025 -0.06147611
000010 6d 29 c0 bc b0 79 55 bd aa 30 1e bd 41 2f aa 3c
       -0.023457253 -0.052118003 -0.03862063 0.020774486
000020 30 a9 cf 3a 6d 34 62 bd 3d 79 e3 3c d9 ca da 3b
       0.0015843268 -0.05522578 0.027767772 0.0066770134
000030 80 7b 62 3d 06 bd 0a 3d 7b 80 6f 3c 49 6f 10 bc
       0.05529356 0.033871673 0.0146180345 -0.008815595
000040 cd 9d 3a 3d d7 3c 84 3d 18 78 e6 3b 31 d9 72 3d
       0.045560647 0.06456917 0.0070333593 0.05928916
000050 37 a4 02 ba 5c a2 de bb bd 89 7e 3d b7 c6 9e 3d
       -0.00049835764 -0.006794257 0.062143076 0.077527456
000060 65 c7 55 bd f4 c3 d1 3c b2 d0 f2 bc da 3a 10 39
       -0.05219211 0.025606133 -0.02964053 0.00013754834
000070 7a 47 02 3d 45 5c ab 3d 40 83 8a 3d 18 7d b4 3c
       0.031806447 0.083672084 0.06763315 0.022032306
000080 07 2d dc 3c 30 42 20 bd b4 37 bd 3d dd 39 52 bd
       0.02687694 -0.03912562 0.0923914 -0.051324714
000090 f7 d1 ad bd 51 83 3a 3d 7c 22 27 bd 31 b6 83 bd
       -0.08487313 0.04553539 -0.04080437 -0.06431235
0000a0 02 74 97 3d 47 f3 19 bd 8e 95 ab ba ef ed 32 3c
       0.073951736 -0.037585523 -0.0013090835 0.010920986
0000b0 01 2a b3 3a f7 80 fc 3c 28 5a 8f bd b2 36 6d bd
       0.0013669134 0.030823214 -0.06999618 -0.05791349
0000c0 e0 12 77 bc d2 5f 21 3d af 00 4e bb 1a 2b a8 3d
       -0.015080184 0.039398022 -0.0031433513 0.08211346
0000d0 d0 54 4b bc b9 4a 1a 3d e1 ac 35 3c 21 ba 48 3d
       -0.012410358 0.037668917 0.011088581 0.04900563
0000e0 ff 48 a8 3d 70 a1 99 3d 44 4c 48 bd 9b 4c d9 3c
       0.08217048 0.07501495 -0.048900858 0.026525786
0000f0 dd de da 3c d0 c1 5c bd 91 23 a7 bc 33 2c 89 3d
       0.026717598 -0.05389577 -0.020402702 0.066978835
000100 b4 f6 7d 3c ee bf 38 3d 5a b6 aa bc 0b fe 07 3d
       0.015500713 0.045104913 -0.020838905 0.03320126
000110 62 94 fd 3c f9 b2 2d bd ba 00 4e bb f6 ef b1 bd
       0.030954544 -0.04240701 -0.0031433539 -0.08688347
000120 f6 f6 6b 3d 8d 50 32 bd e3 00 49 bd eb ad 6d 3b
       0.057608567 -0.04353385 -0.04907311 0.0036266993
000130 94 ec 45 3d a5 5b 30 3d 61 e4 25 bd 53 3e 4e 3c
       0.04832132 0.04305615 -0.040501002 0.012588101
000140 af 79 e1 bc 6c 8d 76 bc 84 6a 62 3d 9b 0b 97 bb
       -0.027523844 -0.015048366 0.055277362 -0.004609538
000150 87 2c a5 bb 82 26 98 3d 6f 7e 5c bd 8b f5 35 3d
       -0.0050407085 0.0742922 -0.053831514 0.04442362
000160 9e 58 b9 3c 56 bf 6d 3d 79 21 9a 3d 3a 69 08 bd
       0.022625264 0.0580438 0.07525916 -0.033303477
000170 c1 d1 ae 3c bc 00 42 3d b8 66 8e 3d e9 06 72 bd
       0.021340253 0.04736398 0.06953186 -0.05908862
000180 41 7c 58 3c 98 7a 07 3d 8a ae 5f 3d 75 a6 3a 3d
       0.013213218 0.0330759 0.054609813 0.045568902
000190 df d2 37 3d c9 f3 e7 3c e5 d7 a1 3d da a9 6b bc
       0.044878837 0.028314488 0.07902507 -0.0143837575
0001a0 51 99 34 bc 8c 5c b9 ba 51 ef 20 3d 05 5e b9 bc
       -0.011022882 -0.0014141961 0.03929073 -0.02262784
0001b0 08 6e 67 3d a7 9e bc bb 87 b0 98 3b 3a 2d 61 bc
       0.05650142 -0.0057562175 0.0046597156 -0.013743693
0001c0 dd 18 0b bb 2d 65 43 bc f7 0c 48 3c 2e 15 13 3d
       -0.0021224536 -0.011925978 0.012210122 0.03590887
0001d0 61 8b 43 3d 3c 48 2b 3d 0e 9f 99 bc 7f b7 cd 3b
       0.047740344 0.041816935 -0.018752601 0.006277978
0001e0 35 38 7c bd bf e0 49 bd 4e f5 43 3d 14 2a 95 3a
       -0.06157704 -0.0492866 0.047841363 0.0011380338
0001f0 dd a7 5a bc 04 09 3b 3d 8b c0 52 bc b8 8f 1f bd
       -0.013345686 0.045662895 -0.012863289 -0.03895542

layer3.weight f4 [3, 128]
000000 c2 74 dd 3d e9 f6 99 bd c2 bd f2 3d 3f ae 22 bd
       0.108132854 -0.075177975 0.118526 -0.039716955
000010 15 68 af 3d 6c 6c a1 3d d7 a5 e9 3c 58 b6 19 3e
       0.08564774 0.07882008 0.028521461 0.15010965
000020 6b 98 04 3e 23 7d b8 bc 79 3a 78 bd 13 63 a1 3d
       0.12948768 -0.022520607 -0.06060264 0.07880225
000030 9e b1 37 bd e3 cc 97 bd 21 19 5b 3b 34 f0 76 3c
       -0.044847123 -0.07412126 0.0033431726 0.015071917
000040 a7 3f 11 bd 8c ff 6e 3d 05 45 81 3d be 23 16 3e
       -0.035461094 0.058349177 0.063119926 0.14662072
000050 93 02 30 bd 4b 65 6d bd d3 67 1a 3e 5f 85 0a bd
       -0.042971205 -0.05795793 0.15078668 -0.0338186
000060 16 97 59 3c 31 be bb 3d fa 67 3c bc 44 6b 00 bd
       0.013280651 0.091671355 -0.011499399 -0.031352296
000070 10 13 46 3d 9b 22 11 3e 6e 90 20 3e 00 7d 98 3d
       0.048358023 0.14173357 0.15680096 0.07445717
000080 81 89 c3 bd 7c 5d 5f bb 6c e9 1e 3e 39 4c 70 3d
       -0.09547711 -0.003408282 0.15518731 0.05866644
000090 6d b3 62 bd 8f 68 a2 bd 5f 9f 3d 3d b6 51 31 bd
       -0.055346895 -0.07930099 0.046294566 -0.043290816
0000a0 e8 83 bb 3d c2 b7 f9 3d c9 23 4d 3d 75 a0 a9 3c
       0.091560185 0.12193252 0.050082956 0.020706395
0000b0 f5 ff c7 3d 01 74 a5 3c 1a 64 92 3c 1b c5 34 3d
       0.09765617 0.020196917 0.017869998 0.044133287
0000c0 1d ff 46 bd e4 5c 33 b9 73 98 0d bd 8e 5c 96 3d
       -0.04858314 -0.00017105375 -0.034569215 0.07341872
0000d0 f8 5c b0 3d 72 56 df bd 69 b7 a2 3c a5 a1 50 bd
       0.086114824 -0.1090516 0.019862847 -0.050935406
0000e0 ee f6 e1 3d 71 c0 65 bc 5f e4 85 3b 07 86 81 bd
       0.11033426 -0.014022932 0.004086062 -0.06324392
0000f0 d7 2d 8a 3c 0b ac ad 3c dc 31 e9 bb b0 c5 6b 3d
       0.016867561 0.0212002 -0.0071165394 0.057561576
000100 49 66 ab 3d 55 d8 f8 bc ed aa 36 3d 61 9d ed bb
       0.08369119 -0.030376593 0.0445966 -0.007251427
000110 02 9f d1 bd 27 b7 8e 3b 04 ac d3 bd 40 bf 0a bd
       -0.102354065 0.0043553296 -0.10335544 -0.033873796
000120 3e fc b0 bc 9d b1 eb bd 4a 6e 86 bd 58 57 9e bd
       -0.021604653 -0.115084864 -0.06564005 -0.07731503
000130 23 c1 75 3c b2 ad 33 bc 3d 13 93 bd 4f 4d ae bd
       0.014999661 -0.010966705 -0.07181404 -0.08510839
000140 7c 20 47 bc c7 4c e8 ba c5 23 95 bd bd f3 98 3d
       -0.012153741 -0.0017723077 -0.07282213 0.074683644
000150 1d 99 e5 bd 4d 76 76 ba f6 a8 af 3d ec 96 11 3e
       -0.11210845 -0.00094017835 0.085771486 0.14217728
000160 82 3c b2 3d ff 96 f8 3d de b4 83 3d f8 15 13 3e
       0.08702947 0.12138175 0.06430982 0.14363849
000170 07 80 74 3d 07 41 22 bd 3a 62 a0 3d fd 51 93 3d
       0.05969241 -0.039612796 0.07831235 0.071933724
000180 7c ee 6b 3d 40 68 ed bc 7c cb c8 bd f5 e4 9c bc
       0.057600483 -0.028980374 -0.098044366 -0.019152144
000190 0f e1 a0 bd 1a 9c 55 bd b1 3b 4c bd a1 a3 70 ba
       -0.078554265 -0.052150823 -0.049861614 -0.0009179656
0001a0 71 c9 bc bd 12 25 1d 3d f1 b4 a1 3d a0 92 43 3d
       -0.092181094 0.03836543 0.0789584 0.047747254
0001b0 a9 25 92 bd 67 5b 15 bd 99 83 99 bd 06 f9 24 3e
       -0.07136089 -0.03646412 -0.074958034 0.1611062
0001c0 0b 4b 65 bd be 9f 4d 3d 90 60 2d 3e 6f 73 8d 3d
       -0.05597977 0.05020117 0.16931367 0.06906783
0001d0 87 db 72 3c df 4f 19 3e 80 1e 8d bb ec 55 bb 3d
       0.014822847 0.14971875 -0.0043066144 0.09147248
0001e0 f9 dc 02 3c 95 96 77 bd ec ac 33 bd 11 cf e7 bd
       0.007987254 -0.06044634 -0.043866083 -0.11318792
0001f0 12 47 e6 3d 25 e4 08 3e f2 c0 0b 3e 9c 5f 4e bd
       0.11244024 0.1336828 0.13647822 -0.05038415
000200 ce 09 0a bc d0 03 fc 3c 82 2a 96 3c d4 70 af 3d
       -0.008425189 0.030763537 0.018330816 0.08566442
000210 8d 5d df bd 5a 3e ea 3c dd d6 28 3d 74 51 41 3d
       -0.10906515 0.028594185 0.041220535 0.04719682
000220 d8 ad d5 bd 0b cc a2 3d 24 bb 89 3c d5 1f 2c bd
       -0.10433549 0.07949074 0.016812868 -0.042022545
000230 8c e3 a9 bd f3 f5 95 3d 4e c3 fa bc 9a 1b 5d bd
       -0.08295354 0.07322302 -0.030610707 -0.0539814
000240 8e f5 02 bd 9c 8c 6b bd 2d 7a a0 3d b3 7c 04 3a
       -0.03197246 -0.057507142 0.07835803 0.0005053982
000250 92 54 a5 3d 79 53 9d 3b 99 f0 71 3c d2 18 c3 bd
       0.08072771 0.0048012105 0.014766836 -0.095262185
000260 b0 20 0b 3c c6 1c 5c 3d 52 89 bf 3b 9f b2 7e bc
       0.00849168 0.053738378 0.0058452273 -0.015545516
000270 89 d4 3b bc 19 9e 2a bd 42 de 87 bd 21 f3 a2 3d
       -0.011464247 -0.04165468 -0.06634189 0.079565294
000280 5c f2 00 bd 63 b0 40 3e 4d c3 ce bd 2e 08 41 3d
       -0.031481132 0.18817286 -0.100958444 0.04712694
000290 d9 f5 17 3d 93 8c 83 bd 03 d9 29 bd d5 97 81 bc
       0.037099693 -0.06423297 -0.041466724 -0.01581947
0002a0 43 3b 4b bd af 39 b6 3c 65 e8 a3 bc 4f c0 11 bd
       -0.049617063 0.022244303 -0.020008275 -0.03558379
0002b0 e8 02 a0 bd b3 70 a1 bc ca 13 7a 3c 86 65 44 bb
       -0.07813054 -0.01970706 0.015263507 -0.002996774
0002c0 a0 03 99 bd b0 d2 dc bd b3 39 e3 3d c4 b7 98 bd
       -0.074713945 -0.10782373 0.1109499 -0.074569255
0002d0 f0 14 b5 bd bc ef 8d 3d 3e b1 dd bd 97 3e 90 bd
       -0.08841884 0.06930491 -0.10824822 -0.07043188
0002e0 11 31 ed bd de 32 a7 3c 2f 27 1d 3c 98 54 cf 3c
       -0.11581624 0.020409998 0.009591862 0.025308892
0002f0 f4 50 83 3c 8b 97 f7 b9 2b c5 a5 bd bc 0f ef bd
       0.016029812 -0.0004722442 -0.080942474 -0.11672923
000300 6a 3f ae 3d 5b cc d0 3c 1f 9a ae bc 02 e2 9f 3c
       0.08508189 0.02548807 -0.021313725 0.019516949
000310 b6 3e b2 bd 0a 72 95 3b 9d ed a7 3c 35 68 92 3d
       -0.087033674 0.0045607137 0.020499045 0.07148782
000320 be fc c0 bb 1f 6a 97 3d 32 6c 81 bd b4 db 22 3d
       -0.005889504 0.07393288 -0.06319465 0.039760306
000330 11 d3 c9 3d 5a 53 59 3e 4d 89 a3 bd ce c8 cb bb
       0.09854711 0.21223202 -0.079851724 -0.006219006
000340 50 c2 41 bc 18 28 96 3b b1 a5 bc bd 9f ca b7 bb
       -0.011826113 0.0045824163 -0.09211291 -0.005608871
000350 ae 4e 15 bd 92 eb 42 bc 9d a6 7d bd d9 b4 6a 3d
       -0.036451988 -0.011896985 -0.061926473 0.057301376
000360 a5 d4 9d 3d 29 a9 7a bc a2 3e 81 bd 08 06 14 3c
       0.07706574 -0.01529912 -0.063107744 0.009034641
000370 4b f0 95 3c 22 f5 5a bd 60 33 c2 bb ab 62 df 3c
       0.018303057 -0.053456433 -0.0059265345 0.027268728
000380 e1 59 37 bd b9 8f 80 ba 40 cd 00 3c 1b bc 3a bd
       -0.04476345 -0.0009808458 0.007861435 -0.045589548
000390 63 cf 42 3d 31 77 bf 3c fb 85 3a bd 36 e9 b0 3d
       0.04756106 0.023372265 -0.04553793 0.086382315
0003a0 13 3e 08 3d 34 94 cc bd 29 fa bd bb 7b 36 fa bc
       0.033262324 -0.09989205 -0.0057976437 -0.030543556
0003b0 ba ed 08 3d 60 a4 bd 3d a9 13 a3 3d 3b a2 0f 3d
       0.03342984 0.09259868 0.07962734 0.035066824
0003c0 fc 1b 9b 3d b5 6b b2 bd fa f6 8d 3b dc 15 e2 bd
       0.07573697 -0.0871195 0.0043324204 -0.110393256
0003d0 b3 b4 2c bb c5 6a 44 3c 66 bd 89 3d 1e eb 3d bd
       -0.0026352822 0.011988346 0.06725578 -0.046366803
0003e0 03 0d 82 3d ff f5 04 3d ea ea af bd d1 11 bb 3d
       0.06350138 0.032461163 -0.08589728 0.091342576
0003f0 93 9c f6 bb b0 76 86 bd de bb e7 bc d3 6a 3e bd
       -0.0075259893 -0.065656066 -0.028287824 -0.046488594

layer3.bias f4 [3]
000000 98 dc e7 bc e2 f4 0f bc a4 b2 d5 3d
       -0.02830343 -0.008786412 0.104344636
