models/a2c_actor_cartpole.pth (torch, 138583 bytes, 6 tensors)

layer1.weight f4 [128, 4]
000000 1e b1 be 3e 18 81 21 3f 29 6c 78 3d 9f 4d 47 3f
       0.37244505 0.63087606 0.060650025 0.77852815
000010 c1 7e 67 be 40 07 01 bd 7f 71 78 bf 0f 53 12 bf
       -0.22606947 -0.031501055 -0.9704818 -0.5715799
000020 f1 aa ff be 99 4e 82 be b9 9c f8 3e 01 6c 28 3f
       -0.49935105 -0.2545059 0.4855707 0.657898
000030 55 18 bf 3d 55 1c c8 3e 20 a9 56 be 78 bd bd be
       0.09330813 0.39084116 -0.20962954 -0.37058616
000040 ca 5e 65 3d 89 56 81 bd 7c 6d ac be 90 d7 ff bd
       0.0559986 -0.063153334 -0.3367728 -0.12492287
000050 b3 c5 9c 3e ed d7 75 be 33 b7 06 3f 34 37 2b 3e
       0.30619583 -0.2400815 0.5262329 0.16720277
000060 de 7f 5d 3d 2d 09 31 be 06 15 2a be 2a fc e0 3b
       0.05407702 -0.17288657 -0.16609582 0.006865998
000070 56 b8 a4 be 5d ad a8 3e ab b6 5d be a3 14 99 3e
       -0.32171887 0.32944766 -0.21651714 0.29898557
000080 47 01 b5 be 0b 95 61 3e d1 9f c1 be ab aa 0e 3f
       -0.35352537 0.22029512 -0.37817243 0.5572917
000090 88 9a 50 be 46 e0 ea 3d aa 47 a7 be 87 fa c4 be
       -0.20371449 0.11468558 -0.32671863 -0.38472387
0000a0 c4 89 8e bc fa 2d 82 be f8 47 e4 be 72 b2 23 bf
       -0.017399676 -0.25425702 -0.44586158 -0.6394416
0000b0 f5 e2 d8 3b 7d 36 d7 bd 7c 65 db be 35 13 b9 be
       0.0066188523 -0.1050844 -0.42850864 -0.36147466
0000c0 46 9e 6f 3e e0 74 4f be 83 06 84 3e 48 d1 95 bd
       0.2340022 -0.20259428 0.25786218 -0.07315308
0000d0 9b ac 3a bd 22 79 3e be 3b 4a 09 3e 27 ca 3d be
       -0.045574766 -0.18600896 0.13407223 -0.18534146
0000e0 72 a5 c7 be 39 99 ab 3c b5 f6 75 3e 39 7e 4c 3f
       -0.38993412 0.020947086 0.24019893 0.798801
0000f0 d0 67 fe 3e c5 99 80 3e 87 62 01 bf 9e 7b 09 bf
       0.49688578 0.25117317 -0.50540966 -0.5370425
000100 c3 47 bd 3e d7 25 a3 be 00 89 97 3e c4 e7 6e 3e
       0.36968812 -0.31864807 0.2959671 0.23330599
000110 d9 d0 83 3d 78 a4 4c be 6f 37 58 bf c0 ff 26 bf
       0.06436319 -0.19984615 -0.84459585 -0.65233994
000120 16 b4 ec be 8a d1 38 3e 19 38 e1 3e cc d6 0e 3f
       -0.46231145 0.18048683 0.43988112 0.55796504
000130 a8 ec 95 3e fb e0 46 3e 29 16 98 bf c3 c5 1c bf
       0.29282117 0.1942176 -1.1881763 -0.6123926
000140 aa 7e 42 3e c9 90 26 3f c3 4e 96 3c 65 ce 20 3f
       0.18993631 0.65064675 0.018348103 0.62814933
000150 20 ab 85 3d 9e 08 94 be c4 f3 53 3e cf e3 46 3f
       0.0652678 -0.28912824 0.20698458 0.7769136
000160 54 e2 8e 3c 2e 84 9d be e3 a5 09 3e 01 fc 11 3f
       0.017441906 -0.30764908 0.13442187 0.5702515
000170 95 c0 bb bd 60 ca ec bc ad d2 4a 3e cc 1d a5 bd
       -0.091675915 -0.028905094 0.19806929 -0.08062324
000180 c9 99 13 be b2 d5 ae 3d e9 2d 8a bf f4 3d 78 be
       -0.14414133 0.08536853 -1.0795261 -0.24242383
000190 ea d6 28 be e7 ea dc 3e d9 a3 b2 3e f6 6b a8 bd
       -0.16488233 0.43147966 0.3489063 -0.08223717
0001a0 5c 22 01 be 70 a5 18 be b5 9f 8c be ed cc bd 3d
       -0.12610763 -0.1490686 -0.27465597 0.09267602
0001b0 ae 12 6a be ea 36 80 3d b9 69 82 3e 90 51 ce bd
       -0.22858688 0.06260474 0.25471285 -0.100741506
0001c0 09 41 15 be 60 02 42 be 20 bf 3f 3c e2 83 15 3f
       -0.1457559 -0.18946218 0.011703283 0.5840436
0001d0 2b 52 db 3e 75 6f 23 bf 12 b5 73 bf 94 e2 26 bf
       0.42836127 -0.63841945 -0.95198166 -0.6518948
0001e0 a6 94 09 3e 4d 35 fb be 55 cf 58 bf bc bb fc be
       0.13435611 -0.49064103 -0.84691364 -0.4936198
0001f0 9c ee 24 3d 96 d5 33 bd 86 c1 8b bc 3b f5 4e 3b
       0.040266618 -0.043904863 -0.017060053 0.0031579274
000200 2c ef 41 3d 12 0d 9c bd d5 95 b2 3e 6c b7 88 bd
       0.047347233 -0.076196805 0.34879938 -0.0667561
000210 18 cf 32 be 7f 16 1b be 1d d1 ba be a9 ec 33 bf
       -0.17461812 -0.151453 -0.36487666 -0.7028299
000220 1a a5 a9 3c 7f 6e 34 be 98 d1 0b bf 28 34 16 bf
       0.02070861 -0.17620276 -0.5461669 -0.58673334
000230 3e 58 9b be bf 45 e2 3d dc 29 61 bf be 18 18 bf
       -0.3034076 0.11048459 -0.879545 -0.59412754
000240 21 50 33 3e 0b 9b a6 be a8 92 1e 3f 38 57 00 3f
       0.17511036 -0.32540163 0.6194253 0.50133085
000250 69 fc 6e 3e 57 b4 07 bf 65 96 ee 3e 36 5f ce 3d
       0.23338474 -0.5300955 0.46599117 0.10076754
000260 06 96 e4 3d f3 c3 43 3e 52 2b 19 bf d5 c8 17 bf
       0.11161427 0.19117717 -0.59831727 -0.5929082
000270 d2 26 aa be 33 95 41 bd 36 ca 43 bf ab fb 36 bf
       -0.33232743 -0.047261428 -0.76480424 -0.71477765
000280 2d f3 a1 bd 78 8f 51 3d 34 81 83 bf 9d 66 00 bf
       -0.0790771 0.051162213 -1.0273805 -0.50156575
000290 3f 84 90 bd e6 73 df bd 39 37 bc be 74 c1 d5 be
       -0.07056474 -0.10910778 -0.36760882 -0.41749156
0002a0 a7 38 96 be 5c be ec 3d 61 9f d0 3e ab 3d ff 3e
       -0.29340097 0.11559746 0.40746596 0.49851736
0002b0 65 19 dc bd 33 56 57 3d db 86 39 be 7a f0 59 bf
       -0.10747031 0.05257244 -0.1811785 -0.85132563
0002c0 ef 41 a6 3e f1 2d 36 3e fb 43 5d bf ae aa 4f bf
       0.32472178 0.17790963 -0.86431855 -0.8111981
0002d0 7c dc c0 3e 7f 0d c4 3c 6d 5b e4 3c 43 72 74 3d
       0.37668216 0.023932217 0.027875626 0.05967928
0002e0 49 ce c3 3e d0 14 68 bd 5e ce 58 bf b8 de db be
       0.3824332 -0.056660473 -0.8468989 -0.42943358
0002f0 07 8b 2b be 05 a2 8d 3e ba 91 a2 3e 7a 70 bf be
       -0.16752253 0.27662674 0.31751806 -0.373905
000300 f4 df 2e bd 96 69 16 be 82 4b 5b be 79 1b 4d 3d
       -0.042694047 -0.14688715 -0.21415523 0.050075028
000310 b5 01 89 3e f3 69 50 3e 68 3c d0 3e 0c 87 2f 3e
       0.26759115 0.20352916 0.40671086 0.1714136
000320 cc aa eb 3e 15 8b 3e 3e b9 16 14 3f 63 5b be 3e
       0.46028745 0.18607743 0.5784717 0.37179098
000330 ab 38 16 3d 91 e0 c8 3d c1 ee 45 be 74 e9 1a bf
       0.036675137 0.09808458 -0.19329359 -0.6051247
000340 06 d5 35 be 09 25 96 3e dd 65 49 3d 2b af ea 3e
       -0.17757043 0.2932513 0.04916941 0.45836768
000350 57 3d d3 be fb 04 cb 3e 50 30 b5 3e 63 4e d1 3c
       -0.41257736 0.39652237 0.35388422 0.025550073
000360 81 9c 93 3d d7 4d a0 be cd 6c 70 bd b5 87 8a 3e
       0.07207585 -0.31309387 -0.05869751 0.2705666
000370 9d fb 43 3e e4 fd a8 3e 47 60 5c bf b5 c9 1a be
       0.19138952 0.33006203 -0.8608441 -0.15116008
000380 b4 8b 19 3e df 4c ca be e0 3c 36 be 86 72 02 3f
       0.14994699 -0.39511773 -0.1779666 0.50956
000390 98 c2 43 be c4 4b 32 3d a7 de 83 3e 07 e0 a5 bd
       -0.191172 0.043529287 0.25755808 -0.080993704
0003a0 b6 ff ce 3e 20 34 25 3e d1 96 d2 be 3c 6c f7 3e
       0.40429467 0.16133165 -0.4113069 0.48324764
0003b0 7c dd e3 3d 92 a5 a7 be 0d 89 7a 3e a9 9b e7 3e
       0.11126229 -0.32743508 0.24466343 0.45235947
0003c0 e7 04 b0 bd 47 ac 9a bd 00 f3 09 3e e1 1e b1 be
       -0.08594685 -0.075523905 0.13471603 -0.3459387
0003d0 e9 4a 51 be 71 56 c9 3e 1f 56 b3 be 5c 5f 33 bf
       -0.20438732 0.39323762 -0.35026643 -0.7006738
0003e0 df 02 cf 3e 81 f4 ed be be 3b 71 3d 98 10 8f 3d
       0.40431878 -0.46475604 0.058894865 0.06985587
0003f0 ba 8e b3 be 59 46 4e 3e aa e0 2b 3f 10 5b 12 3f
       -0.3506983 0.20144023 0.67139685 0.571702

layer1.bias f4 [128]
000000 bb 1f 3a 3e 80 88 c4 3e af a0 40 3e a1 85 bd be
       0.18176167 0.3838539 0.18811296 -0.37016013
000010 ca e3 b3 be 34 2a 5a be fe 52 de be 64 43 f4 be
       -0.35134727 -0.21305162 -0.43422693 -0.47707665
000020 7e 11 3b be f5 4d 2a 3e af db 4d 3e 12 95 e5 3d
       -0.18268391 0.16631301 0.20103334 0.112100735
000030 2c 75 01 be 4b 30 0b 3d 77 21 a5 3e c7 9c 72 be
       -0.12642354 0.033981603 0.32252094 -0.23692618
000040 2c db 7f be 11 69 c0 3e 65 f3 b7 3e 0f 76 bd 3e
       -0.24985951 0.3758016 0.35927883 0.37004134
000050 b5 ed 4d 3e 34 71 4a 3e 4d 4d 94 3d 4c 2e ae be
       0.2011021 0.19769746 0.072413065 -0.34019697
000060 fc 82 3b 3e a5 66 ec be 80 ec 0f bf c9 d9 54 be
       0.18311685 -0.46172062 -0.56220245 -0.20786203
000070 26 fa 2a 3d a6 55 ff 3e 44 aa 9d 3e 9b 7b 50 be
       0.041742466 0.49870032 0.30793965 -0.20359652
000080 ca 65 1f be ed 54 a0 3e a7 71 c8 3d 64 ae d8 3e
       -0.15566173 0.31314793 0.097873025 0.4232055
000090 40 61 42 3e c4 f2 a1 3d 1a a5 dc bd ec b9 e6 3e
       0.1898241 0.07907632 -0.10773678 0.45063722
0000a0 d7 c1 f5 3d 85 70 11 3e b9 37 20 3e 6b b1 45 3d
       0.11999863 0.14203079 0.15646257 0.048264902
0000b0 73 58 e9 3d ba ed ac be 63 f4 8f 3d 29 41 9c 3e
       0.113938235 -0.3377512 0.07029035 0.30518463
0000c0 81 c8 09 bf 6a 87 7f 3d c5 91 5e 3e 70 3f 05 be
       -0.5382157 0.062385 0.21735294 -0.1301248
0000d0 f3 9a 9c be 07 39 64 3e 68 56 a3 be 56 74 46 bd
       -0.30586967 0.22287379 -0.3190186 -0.04845079
0000e0 3f 01 b8 3d 07 04 63 be c5 b7 19 bf f6 0a 91 3c
       0.08984613 -0.22169505 -0.60046035 0.017705422
0000f0 66 bd d3 be 81 72 79 be a0 9a 5a be ef 8c ec 3d
       -0.41355437 -0.24360086 -0.21348047 0.115503184
000100 7f d9 a8 3e c4 8d 9f be 30 72 65 3e aa 66 8d 3e
       0.32978436 -0.31162846 0.2240684 0.2761739
000110 93 81 44 3d fd 3c 37 be d0 f2 5d 3e 7b 4c 2b 3e
       0.047975134 -0.17894359 0.21674657 0.16728394
000120 30 d6 ac 3e a7 97 9e bc 1a c0 a3 be 72 c9 58 be
       0.33757162 -0.019359423 -0.319825 -0.21170595
000130 b9 c5 01 3e ac 36 45 be 0a cc e2 be 73 c7 fa be
       0.12673081 -0.19259137 -0.44296294 -0.48980293
000140 57 5e 02 bc d0 25 d4 3e f0 2a 41 be 8a 8c 02 3e
       -0.007957063 0.414351 -0.18864036 0.12748924
000150 e7 60 86 3e eb 3f 2a be 36 d2 08 bf ab a4 84 be
       0.26245806 -0.16625945 -0.53445756 -0.25906882
000160 32 76 43 3d d6 8f 86 3e c2 c0 be bd 66 45 83 3e
       0.04772014 0.26281613 -0.093141094 0.25638884
000170 e5 83 5c be 43 e2 32 3e 5e f0 46 3e 79 27 54 3e
       -0.21534689 0.17469124 0.1942763 0.20718183
000180 59 02 c9 3e d8 0b 94 be 3f cf 0a 3e 9e 41 9a 3e
       0.39259604 -0.28915286 0.1355562 0.30128187
000190 ea 3f a7 3e 0a 69 48 be 2d 78 a9 be bb 48 d3 3e
       0.3266595 -0.19571319 -0.330995 0.41266426
0001a0 d5 bf 8f be 3c 2e 85 be 12 b3 c8 be 73 c1 c1 be
       -0.28076044 -0.26011837 -0.3919912 -0.37842903
0001b0 1d 0a a3 3d 20 f2 ca 3e 77 73 2f 3e be a9 43 3e
       0.07960913 0.39637852 0.1713389 0.1910772
0001c0 72 a4 4f 3e d1 24 91 be 6b 9d ee be 9f fb 0e 3e
       0.20277575 -0.283484 -0.46604475 0.13963173
0001d0 ab 78 58 be 25 af 98 be 3d 38 40 be c4 91 cb be
       -0.21139781 -0.29821125 -0.18771453 -0.39759648
0001e0 db 2e a6 3e 9a d5 9c be dc b4 94 3e 8d 4e ed be
       0.32457623 -0.30631715 0.29044235 -0.46348992
0001f0 c9 da 0f bf ee 1f df 3d 98 e6 73 3d ea 9f 05 bf
       -0.56193215 0.10894762 0.059546083 -0.52197134

layer2.weight f4 [256, 128]
000000 ca dc 35 3d 27 d0 4a 3d 7c 67 81 bd c1 62 e6 bd
       0.044400014 0.049514916 -0.06318566 -0.112493046
000010 70 99 97 3b 15 58 a6 3d 20 7f 98 bb da 61 44 3d
       0.0046264455 0.08122269 -0.0046538264 0.04794488
000020 ec a2 2e 3a cf 0c 38 bd 2a 94 11 bd 1f 56 30 bd
       0.00066618505 -0.04493409 -0.03554169 -0.04305088
000030 e8 52 94 bb 47 0f 2c 3d a3 cd 3c 3c c8 48 ab bd
       -0.0045264848 0.042006757 0.011523637 -0.08363491
000040 89 ca a3 3c 42 c3 6f 3d bb b7 9f bd 3e a3 8f 3c
       0.019994037 0.05853582 -0.07798716 0.017533895
000050 9a 0d a0 b9 3f 53 1b 3d 32 c2 59 bd cf 01 8c 3d
       -0.00030527712 0.037921187 -0.053163715 0.068362825
000060 8c 84 3d b9 8c 2c 08 3d 70 ad cd 3b a0 f1 90 3d
       -0.00018073822 0.03324561 0.006276779 0.07077336
000070 4a e4 e4 bc 4c 08 b3 bd 02 1a 92 bc 34 28 02 3e
       -0.027940888 -0.08741817 -0.017834667 0.12710649
000080 a1 08 07 3d c7 4a b4 bd 5f e4 19 bd c3 4e 4b bd
       0.032967214 -0.08803325 -0.037571307 -0.04963566
000090 ed 4b 5a bd 86 7f f0 bd 1e 3e 68 3d 10 eb 94 3d
       -0.053295065 -0.11743073 0.056699865 0.07271397
0000a0 fa 85 70 bd b1 7c ac bd 2d 0b 32 3d 70 cd 91 bb
       -0.05872152 -0.084222205 0.04346769 -0.004449539
0000b0 b0 a5 a5 3c da 8d 11 be cc 34 2b bc 09 84 bf bc
       0.020220608 -0.14214268 -0.0104495995 -0.023378389
0000c0 a0 7a f6 bc d5 a4 16 bd 66 26 18 bd dd 68 1a 3d
       -0.030087769 -0.03677829 -0.037145995 0.03769766
0000d0 68 88 7b 3d 3d 64 83 3d 0a df 5e 3d 76 f1 86 bd
       0.061409384 0.06415603 0.054411925 -0.06589024
0000e0 88 8b 84 bd 1d f9 89 bd 73 8a b0 bd 79 b0 8c bd
       -0.06471926 -0.06736968 -0.08620157 -0.06869597
0000f0 6a 40 a6 3d 24 6c 28 3d 1a ed 8b 3d b5 97 2a bd
       0.08117755 0.041118756 0.06832333 -0.041648585
000100 5d d3 2f bd 4d c9 d6 3c 0d 35 6b bd d7 f2 06 be
       -0.04292618 0.026219035 -0.05742364 -0.13178574
000110 08 02 18 bd e0 a3 5b 3d 99 f7 b7 bc ca 94 c2 bd
       -0.037111312 0.05362308 -0.022456931 -0.095010355
000120 af ea 03 3c be a8 3d bc eb a0 b7 bd ac e2 8f bd
       0.008051558 -0.011575876 -0.089662395 -0.07025656
000130 19 c1 73 bc 43 8d b4 bd 40 3a cf 3a d4 6e cf 3d
       -0.014877581 -0.08816006 0.0015810207 0.10128561
000140 61 5c 14 bd 96 1d ae 3c 6b 48 04 3d 71 12 08 bd
       -0.036220912 0.021254342 0.032295626 -0.033220712
000150 1e 5a 60 3d ed 1d 0b 3d e0 37 67 bc ac 3a a1 bd
       0.054773442 0.033964086 -0.014112443 -0.07872519
000160 98 53 a7 3d 5b ef ca bd 70 2c b0 bd 18 62 3d bd
       0.08170241 -0.09908935 -0.08602226 -0.046236128
000170 c5 1a 4b 3d f2 3d ba bd 80 9f 2f bd ef 24 85 bd
       0.049586076 -0.090938464 -0.04287672 -0.06501185
000180 72 e4 df bd ff db ba 3c 3b 31 b3 3c 65 ba 19 3d
       -0.10932244 0.02280998 0.02187406 0.037531275
000190 80 c9 d7 3c eb 3d 6a 3d 97 76 ab 3c 62 27 f0 3b
       0.0263412 0.057187956 0.020930571 0.0073289135
0001a0 39 b1 29 bd 40 2c f7 3c f7 af 2e 3d 68 02 70 bc
       -0.04142878 0.030172467 0.042648282 -0.014649011
0001b0 72 d4 f1 3b 8f fa 1c 3d 35 7d 45 bc 85 2f dd bd
       0.007380062 0.03832489 -0.012053777 -0.10800079
0001c0 78 db fb bd 3f e0 d4 3d 67 72 b5 3b 60 a6 a8 3c
       -0.1229772 0.10394334 0.0055373195 0.020587146
0001d0 c1 6a b0 bd 2c 58 72 bd 35 0c 6c bd 5c 71 a7 3d
       -0.08614112 -0.05916612 -0.05762883 0.081759185
0001e0 04 76 b5 bc 1e ef 38 bd 6e a8 f0 3b 04 bf 89 bd
       -0.022151 -0.045149915 0.007344297 -0.067258865
0001f0 16 74 0b 3d 5b a6 94 bd c1 27 6a 3d ad 6b c5 3c
       0.034046255 -0.07258292 0.05716682 0.024099195
000200 15 ef b4 3d 3d 7d c5 bd a9 91 e2 bc 22 61 53 3d
       0.08834664 -0.09643028 -0.027657347 0.051606305
000210 26 d9 f7 bc 3c 97 7a bd c0 fb ea ba 40 02 e0 bc
       -0.030254912 -0.061179385 -0.001792781 -0.027344823
000220 e8 3b 76 bc ed 9e 87 3d 09 a1 11 bd c8 6c 87 bd
       -0.015028931 0.066221096 -0.035553966 -0.06612545
000230 61 c1 25 bd e0 5b 82 bc 25 3e 9c bd da ab 78 3c
       -0.040467624 -0.01591295 -0.07629041 0.015177691
000240 1a 3f 4c 3d e2 7d 8f bd 20 67 e3 bb 17 ec 8d bc
       0.049864866 -0.07006432 -0.0069397837 -0.01732449
000250 9d 5a c1 bd af 55 01 3c 8b 18 6a bd c8 aa 19 bd
       -0.09441111 0.007893964 -0.057152312 -0.037516385
000260 1a d6 28 3d a7 d6 8e 3d ae 04 4c 3d 43 22 da 3c
       0.04121981 0.069745354 0.04980915 0.026627665
000270 e8 cf 5e bc 94 d7 0e 3d f6 79 3c 3d ad 66 8e 3d
       -0.013599373 0.03487356 0.04601475 0.069531776
000280 45 b8 a5 bd 20 38 36 bd 65 5f 8c 3d 3e 86 23 bd
       -0.08091787 -0.04448712 0.068541326 -0.039922945
000290 6b 87 a5 bd 08 02 47 3d 88 d1 a8 3d dc 73 fd bc
       -0.080824696 0.04858592 0.0824309 -0.030939035
0002a0 20 4c df 3b fc 0d c1 bc 11 a6 88 bd 72 3c 7c 3d
       0.0068144947 -0.023566239 -0.066723 0.061581083
0002b0 09 ae 89 3c 8a 5b 18 bd 0a f0 c2 3c 0e c1 d8 3c
       0.01680662 -0.037196673 0.0237961 0.026459243
0002c0 42 8a 96 bd 97 f6 16 3d fd 01 58 3d 61 cd 4a bd
       -0.07350589 0.03685626 0.05273627 -0.04951227
0002d0 b6 51 26 3d 38 93 35 bd ba 68 6a 3d a9 99 8f bd
       0.04060527 -0.044329852 0.05722878 -0.0701173
0002e0 97 1c 89 bd d2 94 90 3c 56 24 5c 3d 58 90 d4 3c
       -0.06694906 0.017649088 0.05374559 0.025947735
0002f0 68 e1 b1 3c d8 d7 37 3d 7a b6 2c 3d 50 de 50 bd
       0.021713927 0.04488358 0.04216621 -0.050993264
000300 67 75 19 bd c0 ac 90 ba 35 ec b7 bd 3e 2f 35 3d
       -0.03746548 -0.0011037812 -0.089806 0.044234507
000310 fa 91 8e ba a8 fd 7b bd dd 14 d3 bd a6 39 40 3d
       -0.0010877245 -0.061521202 -0.10306714 0.046929978
000320 48 80 e6 3c 2b e7 51 bb 5a 0e 9b bd d0 94 87 3d
       0.028137341 -0.0032028656 -0.07571097 0.066201806
000330 62 b4 61 3a ca a6 92 bc a2 50 76 bd 82 b3 6b bd
       0.0008609948 -0.017901797 -0.06013549 -0.05754424
000340 93 fb 9f bc 6d aa d4 bd 57 46 36 bd 32 10 63 3d
       -0.01952914 -0.10384069 -0.044500675 0.055435367
000350 49 c5 61 3d b6 03 0c bc 00 7e 27 39 c8 14 96 bc
       0.055119786 -0.008545807 0.000159733 -0.018320456
000360 5e 6b 19 3d e5 d0 8f 3d 8b b2 ad bc 65 cb 6a 3d
       0.03745591 0.07022265 -0.0212033 0.05732288
000370 ac 04 78 bd 40 57 2c bd 4c ec ee bc 74 00 04 3d
       -0.06055133 -0.042075396 -0.02916541 0.032226995
000380 08 af 36 3d 58 2d 74 bc 7c 43 e7 3c 0c 74 b7 bd
       0.044600517 -0.014903389 0.028230421 -0.08957681
000390 51 9a 8d bc a5 2e 8f 3d 6b e5 35 3d 73 64 ca bd
       -0.017285498 0.069913186 0.044408243 -0.098824404
0003a0 c9 00 89 bd b2 5d 68 3d 60 81 42 bd 47 e0 2a bd
       -0.06689603 0.05672998 -0.047486663 -0.041717794
0003b0 5e 2c af bc e5 b4 5f bd 52 af 11 bc 11 1f 87 bc
       -0.02138346 -0.054615874 -0.008891897 -0.016494306
0003c0 df cf 45 3d bb ba a4 bd fc 77 a9 3c 81 ee 7c bd
       0.048293944 -0.080434285 0.020687096 -0.061750893
0003d0 f7 7c 04 bd c2 12 41 3d 7b 71 8b 3d f1 33 82 3d
       -0.03234574 0.04713703 0.06808754 0.06357563
0003e0 32 78 10 3d 5d 49 24 3d 58 db 76 bd d0 e8 c6 bb
       0.035270877 0.040109027 -0.060267776 -0.006070234
0003f0 bc b6 c3 bc 7a ef ff bd fc d9 1e 3d d3 46 6f bd
       -0.023890845 -0.124968484 0.038782105 -0.058417153

layer2.bias f4 [256]
000000 4b a2 d0 bd 3d 32 d4 bd 55 a4 7f bd 94 35 a5 3d
       -0.10187205 -0.10361145 -0.06241258 0.0806686
000010 f5 90 d2 bd e5 e6 3e 3c 22 c1 4c bc 64 fb 0b bd
       -0.102815546 0.011651729 -0.012497218 -0.03417529
000020 91 af 2a 3d f7 ca dc bc 4d 36 85 bc b3 97 8c 3b
       0.04167134 -0.02695225 -0.016261244 0.004290545
000030 51 2a 0d be fd 93 e3 b8 2a 05 05 3d aa 08 c0 bd
       -0.13785674 -0.000108517685 0.032475628 -0.093766525
000040 f2 d7 9c bc da de 04 be 71 ee 7d bc d1 66 08 3c
       -0.01914594 -0.12975636 -0.015498743 0.008325295
000050 64 22 b6 3c 50 3a 8c bb 51 32 57 bc 31 9a 1e bc
       0.022233196 -0.0042794123 -0.013134555 -0.009680317
000060 02 09 48 bd 77 9f 50 bc 96 d3 b5 bc fa 47 b8 bc
       -0.048836716 -0.012733332 -0.022195619 -0.022495259
000070 01 dd e8 bd e8 c6 8e bd 80 cb ab bd 5f 32 41 bd
       -0.11370278 -0.06971532 -0.08388424 -0.04716718
000080 9d ac 22 3d 07 cf b9 bd 32 6d ba 3d b1 21 2e 3d
       0.039715398 -0.090726905 0.091028586 0.0425126
000090 c2 bc ee 3a e6 0f 57 bd c9 2c d1 bc 53 79 80 bd
       0.0018214213 -0.052505396 -0.02553405 -0.06273141
0000a0 8b e0 56 bc 8b 0e 7e 3d 71 43 0f be 6d 12 64 bc
       -0.013115059 0.062025588 -0.1399057 -0.013920409
0000b0 c6 f1 95 bc c7 61 2e 3c 35 b4 0e ba 77 8f da bd
       -0.018303763 0.010643429 -0.0005443723 -0.10671895
0000c0 f5 be 3a bd 88 06 bd bd 2c a1 eb bd aa ce 94 bb
       -0.045592267 -0.09229761 -0.115053505 -0.004541238
0000d0 21 3f 89 bd 5f 34 cb bd 21 c4 b1 bd 9e 1e 43 bd
       -0.06701494 -0.09922098 -0.08679987 -0.04763662
0000e0 de a2 b3 bd 2d 05 8b bc e7 a5 c1 bd 25 8a c0 3b
       -0.08771299 -0.016970241 -0.094554715 0.005875843
0000f0 cc d4 3b 3d 1f b6 a7 3c 04 06 a5 bd 92 5a bc bd
       0.045857236 0.020472584 -0.08057788 -0.091969624
000100 8c 1c 1b 3e 82 66 3d 3d af 00 2a 3d 54 fa 5a bd
       0.15147609 0.046240337 0.04150456 -0.053461388
000110 a2 05 8a 3c 64 0a 98 3c 87 a7 06 3d 4d 40 58 bd
       0.016848389 0.018559642 0.03287461 -0.052795697
000120 bf 93 63 bd 09 aa d3 bd e7 47 4b bd 0e a7 17 bd
       -0.055560824 -0.10335166 -0.04962912 -0.03702455
000130 7f c0 0f 3d be 19 8c 3d 61 e1 94 bc da 00 fd bc
       0.035095688 0.068408474 -0.018173875 -0.030884195
000140 a0 c4 cf bb 96 d8 d9 3b 7d a4 ce bc 75 ae 16 3d
       -0.006340578 0.0066481335 -0.025224918 0.03678747
000150 64 7c 1d bd c8 5d d2 bd 53 44 3d bd 4f 51 12 3d
       -0.038448706 -0.102717936 -0.046207737 0.035722073
000160 32 c3 21 bd fc 29 49 3c e0 c3 7d bc 9a 50 41 bd
       -0.039492793 0.012278076 -0.015488595 -0.04719601
000170 11 6d a9 bd 74 f3 c0 3c f3 63 6d 3d 56 2d de bd
       -0.08272756 0.023553587 0.057956647 -0.10848491
000180 18 e4 2d 3d e6 a8 e0 bd 25 ff fb bc b1 0d 12 bb
       0.042453855 -0.10969715 -0.03076131 -0.0022285993
000190 c4 f0 a9 bc e1 f2 1e 3d f9 09 f2 3c fe 8b 03 bd
       -0.020744689 0.038805846 0.029545771 -0.03211593
0001a0 53 fc 7f bd 7a e6 41 3d 89 c7 95 bd b3 ac 83 3d
       -0.062496495 0.04733894 -0.07313449 0.06429424
0001b0 2f 0e 96 3c 8a 04 32 3c 6f a6 b5 bd bb 6a 55 bd
       0.01831731 0.01086534 -0.08869635 -0.05210374
0001c0 ad b7 3c 3c c2 49 bf bd 14 e6 95 bd c2 bc a5 3c
       0.011518401 -0.0934024 -0.073192745 0.020231608
0001d0 c1 2a 6e bd 41 d5 97 bd 2c bb 3e bd 7e d3 ed 3c
       -0.058146242 -0.07413722 -0.04656522 0.029031511
0001e0 7f 84 38 3d 21 b5 b6 bb c3 e0 5d bc 32 a5 9d bd
       0.045048233 -0.0055757915 -0.013542357 -0.07697524
0001f0 a5 e4 24 3c 1e b0 95 bd 06 0a 08 bd 3e 0d c7 bd
       0.010064279 -0.07308982 -0.033212684 -0.097193226
000200 6d f3 39 bd 5d 2e d1 bd e2 0d a6 bd 03 c3 c5 bd
       -0.045398165 -0.10213921 -0.08108117 -0.09656336
000210 01 9a 80 3c e7 d9 92 3c 22 bc a4 bd 6c 4e 9d 3c
       0.015698435 0.01792617 -0.08043696 0.019202434
000220 70 a3 7e bd 24 e2 7e 3c 34 44 14 3e b4 7d 96 3d
       -0.062167585 0.015556846 0.14479142 0.07348195
000230 a6 be c2 bd d9 ef 76 bc 75 d2 d7 bd d7 e6 f9 bc
       -0.095090196 -0.015071833 -0.10538188 -0.03050558
000240 86 9b e8 3c 05 1b 17 bd 84 d5 d6 bc e0 54 d1 3c
       0.028394472 -0.036891002 -0.026224859 0.025553167
000250 28 ee a4 bd fa 9e 3e 3b 25 78 cd 3c 12 f9 c9 bd
       -0.08053237 0.0029086457 0.025081703 -0.098619595
000260 98 39 0b bd 17 56 d9 3c 95 f2 f1 bd 99 cb 31 be
       -0.033990473 0.026530309 -0.11813847 -0.17362823
000270 06 97 d2 bd 5d 4f 66 3d e1 b7 14 be a1 d1 13 bc
       -0.10282712 0.05622803 -0.14523269 -0.009022147
000280 ee 69 10 be 4f f5 a2 bd ae 61 a8 bd bc 0b 5c bd
       -0.14102909 -0.07956945 -0.08221756 -0.05372213
000290 cc c1 2d bd bf bc a0 3d f6 ba 22 3d 1d d7 39 bd
       -0.042421147 0.078485005 0.03972908 -0.045371164
0002a0 c4 5a c2 bb bb 17 8b bd a5 74 a8 3b fe 01 64 bc
       -0.0059312303 -0.067916356 0.0051408582 -0.013916491
0002b0 ff e2 9a bd 70 7b 3e 3d 4d 52 88 bc 83 9e 7c bc
       -0.07562827 0.046504438 -0.016640807 -0.0154186515
0002c0 94 bd 19 3d 2a 39 41 3d 2d d5 80 bc 16 1d 9d bc
       0.03753431 0.047173657 -0.01572665 -0.019178908
0002d0 17 4d 0e 3d 0a 27 97 bd cc c6 05 3d f8 a3 20 3d
       0.034741487 -0.07380493 0.03266029 0.039218873
0002e0 cf 9f 56 bd d7 04 94 bd 40 1d 15 bd 5c 14 ca bc
       -0.0523985 -0.072274856 -0.036404848 -0.024667911
0002f0 eb 17 f9 3d 8e a1 56 3d 62 d1 80 bd 0c 57 24 3e
       0.12162765 0.052400164 -0.062899366 0.16048831
000300 b9 0a d7 3b 30 d8 c5 3b 9e 7a 7f bc 8e 59 07 3d
       0.0065625575 0.0060377344 -0.015593199 0.03304439
000310 a3 c4 cb 3c 6f 23 4e bc 3b 7f b8 ba 7d c2 89 bc
       0.024874037 -0.01258169 -0.0014076004 -0.016816372
000320 66 f4 d5 bc d9 22 80 bd be 1c 77 ba 5c 6e b3 bd
       -0.026117515 -0.06256647 -0.0009426585 -0.08761284
000330 61 68 02 bd 00 dc 4d bd 7b da 08 3b 38 b9 e5 bd
       -0.031837825 -0.050258636 0.0020882178 -0.11216968
000340 10 c9 00 3b 54 ab eb bc 24 34 76 bd ff c2 01 bc
       0.0019651093 -0.028768219 -0.06010832 -0.007920026
000350 6d 40 ef bd 9e d0 69 bd cc 83 db 3c c2 a4 31 bd
       -0.1168221 -0.05708372 0.026796244 -0.043370016
000360 d6 52 af bd 12 9f 6b 3c 4d 5a 41 3d c4 37 84 3d
       -0.085607216 0.014381187 0.04720526 0.06455949
000370 c2 1b 2d 3b a3 cf e2 bd 0a de 23 bd 7d c2 bd bd
       0.002641425 -0.1107476 -0.040006675 -0.09265611
000380 e8 34 1a 3d 92 96 2d 3d cc bd ac bd 9e 2c 72 bd
       0.03764811 0.042379923 -0.084346384 -0.05912458
000390 f5 34 cf bd 81 02 ac bc 6b 7f 9d bd a6 45 12 3d
       -0.101175226 -0.020997288 -0.07690319 0.035710953
0003a0 1d 0d ab bc af e6 cf bd 6d be 19 bc 6f 44 a6 bd
       -0.020880276 -0.10151421 -0.00938378 -0.081185214
0003b0 ee c5 fb bc be 88 95 ba fd fe 57 bd b2 30 f1 bd
       -0.030734029 -0.001140855 -0.05273341 -0.11776866
0003c0 ba e0 dd bd 4f 86 f5 3c d6 fd 0c bd 9f 44 05 bd
       -0.10833879 0.02997127 -0.034421764 -0.032536145
0003d0 31 3f 03 3d be a2 ae 3c 28 39 9d 3d c1 39 48 3d
       0.032042686 0.021317836 0.07676917 0.048883203
0003e0 03 4c 9f bd f5 bd da bc 30 66 4d 3c 64 77 30 bd
       -0.0777817 -0.026701907 0.01253657 -0.04308261
0003f0 10 c6 07 bd 48 30 a5 bc 63 40 a3 bd 90 bb df bc
       -0.03314787 -0.020164624 -0.07971265 -0.027311116

layer3.weight f4 [2, 256]
000000 86 34 d1 3b b4 f4 5b bc 75 4f 84 bc 6a 0e 19 be
       0.006384435 -0.013425041 -0.01615117 -0.14946905
000010 60 33 0b 3d 0f fa 58 bd 13 c7 4f bd d9 67 2f 3c
       0.033984542 -0.05297285 -0.05072696 0.010705912
000020 c7 a0 0f bd ed 91 56 3d 08 13 02 3d bc 83 64 bc
       -0.03506544 0.05238526 0.03175643 -0.013947424
000030 ae 96 42 3c 83 9d 2f bd 43 49 68 3c 18 3d f5 bc
       0.011876745 -0.042874824 0.014177623 -0.029936358
000040 0c cb d3 3c dc 1c bb 3c 43 8d 0c 3e ee 01 d3 3c
       0.025853656 0.02284091 0.13725762 0.025757756
000050 01 24 97 bc 86 e0 e7 3c 2f d0 44 bd a1 62 d3 bc
       -0.018449785 0.028305303 -0.0480501 -0.025803866
000060 28 92 dd bb 03 1d 38 3d 77 fb 3e 3c 30 96 ef bc
       -0.006761808 0.044949543 0.011656634 -0.02924642
000070 26 f6 6f bc 11 6e 41 bb 72 e1 e0 bb 3a 58 18 3d
       -0.014646089 -0.0029515068 -0.0068628127 0.037193514
000080 a1 3c 53 bc 88 6d 04 3d c2 b7 f7 3d 6e 7a 86 3c
       -0.012892873 0.03233102 0.12095596 0.0164158
000090 f9 9f 9d ba c8 78 1d 3c 64 5e 8f bd 40 5d 7e bd
       -0.0012025825 0.009611316 -0.070004255 -0.06210065
0000a0 62 eb 1a bd fa 15 14 bd 42 d6 3d bc f6 71 c7 3c
       -0.037822135 -0.03615377 -0.011586728 0.024346333
0000b0 a1 8b a4 3b ab e3 c7 bd 50 32 3a 3b 3c d0 4f bc
       0.005021528 -0.09760221 0.0028411336 -0.012683924
0000c0 86 af a8 bb ff 3c 8b 3c 84 a6 94 3c 19 4c 3b ba
       -0.005147877 0.016996859 0.018145807 -0.00071448233
0000d0 19 80 89 bd 92 bb 1d 3d b1 68 f3 bc 91 a7 c0 3c
       -0.06713886 0.03850896 -0.029713007 0.023517402
0000e0 3d 4e 18 bd 02 48 50 bd e1 d2 4e 3c 92 b1 4e bd
       -0.03718399 -0.050849922 0.01262352 -0.050462313
0000f0 2e 23 45 bd 51 6b 07 bc 7c 99 15 3d 74 cc 40 3d
       -0.048129253 -0.008265332 0.036523327 0.04706998
000100 5c fd bd 3d 8a ee a5 bb cd 59 00 3d 12 51 14 3d
       0.0927684 -0.0050638365 0.03133564 0.036210127
000110 6c 02 ff bc a0 a8 31 3d a3 5e 12 bb 5e 90 b5 ba
       -0.031129085 0.043373704 -0.002233424 -0.0013852229
000120 39 66 59 bd 0c 3a ac bb bf 8f 45 bd 5e d5 d8 ba
       -0.053076003 -0.005255943 -0.04823279 -0.001654308
000130 8a b7 8f bd ab f4 28 3e 0f 4c 1e 3c 95 b6 6d 3c
       -0.07017429 0.16499583 0.0096616885 0.014508863
000140 f9 93 59 bc 3e 8a 1b 3d 4c 2e 50 bd ad 53 12 3e
       -0.013279908 0.037973635 -0.050825402 0.14289732
000150 4f a7 37 3d b6 fe 84 3c 22 d9 ed 3c 52 52 8e bb
       0.044837292 0.016234737 0.029034201 -0.0043433094
000160 ce 85 e9 bc 8d 90 2f bc 34 05 39 bc 85 da e3 bc
       -0.028506186 -0.010715616 -0.011292744 -0.02781416
000170 aa bb 62 3d 6d d6 f6 3c 75 52 e3 bb 82 b2 c3 bc
       0.05535475 0.030131543 -0.00693732 -0.02388883
000180 c2 e0 69 3d fc f1 14 3d 3d b5 1c bd 6c f4 ec 3c
       0.05709911 0.036363587 -0.03825878 0.028925143
000190 c5 7a 62 bc 09 6f 77 bd 50 e0 3f 3a a0 88 99 3c
       -0.013823216 -0.060408626 0.0007319497 0.018741906
0001a0 30 b4 f3 bc 60 77 51 3d 5d 57 d0 bc 39 ca 1d bd
       -0.029749006 0.051139235 -0.025432283 -0.038522933
0001b0 81 a5 09 bd ff db ba bc 59 75 99 3b 50 3f a7 3c
       -0.033605102 -0.02280998 0.0046831784 0.020415932
0001c0 e6 a0 91 3c b0 d3 62 bc 04 58 99 3c 83 a0 42 3d
       0.017776918 -0.013844416 0.018718727 0.047516357
0001d0 ef e2 c9 3c 3b f3 99 bc b8 05 4a 3c f1 b8 21 3d
       0.024644343 -0.01879274 0.012330465 0.039483014
0001e0 31 dc 72 3d 58 a2 a1 bc a4 a7 3c 3b 1d f2 b0 3b
       0.059292022 -0.019730732 0.0028786445 0.005399956
0001f0 6e 38 02 bd 1d 69 61 bd c9 ca 0c bb b0 58 b3 bc
       -0.031792097 -0.055031884 -0.0021483174 -0.021892875
000200 b1 5f 96 bc 93 f4 4e 3c 56 e8 16 bd 93 00 d7 3b
       -0.018356176 0.012631553 -0.036842667 0.0065613477
000210 32 95 80 3c 2d 42 57 bc 39 60 6b bd 2d f5 ac 3c
       0.015696142 -0.013138336 -0.057464812 0.021113003
000220 c7 3b 7a 3b 60 9a 89 3a 75 37 70 3e ff 2f 10 3e
       0.0038182603 0.0010498278 0.23458655 0.14080809
000230 ad ac 72 bc c2 36 96 3c bc e1 8a 3b c9 f0 98 bc
       -0.014811677 0.018336657 0.0042383354 -0.018669503
000240 df 0b 16 bd 2b c5 bc bc 70 0e f0 3c 07 ec 30 bd
       -0.036632415 -0.023043236 0.02930376 -0.043193843
000250 f7 11 07 3c 59 6d 98 bc 0f 38 a8 3c 00 13 81 bd
       0.008244029 -0.018606829 0.020534543 -0.06302452
000260 d2 e8 92 bc 72 ca f0 bb e5 71 84 bc 38 f9 63 3c
       -0.017933283 -0.007348352 -0.01616759 0.013914399
000270 ed 07 f8 3c b1 dd 28 3c 01 1a 02 3c 92 34 1f bd
       0.030277217 0.010306762 0.00794077 -0.038868494
000280 7e e6 30 3d 82 a2 9a bc 0e 6d f6 bc 3c 2e cc 3c
       0.043188564 -0.018876318 -0.030081298 0.02492439
000290 e9 6c 1d bd 0f 3f 62 be 7d 1b c3 bc 79 35 54 3d
       -0.038433943 -0.22094367 -0.023816818 0.051808808
0002a0 94 a2 bf ba 37 44 e0 bb 0b 67 0a 3c 72 18 14 3c
       -0.0014620596 -0.0068440693 0.008447419 0.009039031
0002b0 57 44 d7 bc 34 f4 01 bd 0c a5 cd 3c 0e 94 a1 bc
       -0.026277704 -0.03172703 0.025103115 -0.019723918
0002c0 fd 25 7b bc 08 8b 12 3c 71 26 a8 3c 15 46 cc bc
       -0.015328881 0.00894428 0.020526143 -0.024935761
0002d0 78 af 87 bc e3 29 49 be 43 14 2a 3b 26 e7 0c bc
       -0.016563162 -0.19644885 0.0025952018 -0.008600032
0002e0 fc 24 7e 3c 7c 6f c1 bd 32 90 35 bd cf ef 98 3c
       0.015511747 -0.09445092 -0.04432697 0.018669037
0002f0 34 3c 78 3e 79 20 c2 bc c2 d5 aa bc 00 13 2f 3e
       0.24241716 -0.023697125 -0.02085388 0.17097092
000300 34 19 63 bd a1 b3 01 3e 7e e1 33 3c 3a f4 b0 bb
       -0.055443957 0.12666179 0.0109790545 -0.005400208
000310 e7 af c7 3c de 72 f6 3c fe bc a3 bb da a5 30 3d
       0.024375869 0.03008407 -0.004996895 0.04312692
000320 b8 1e 9a bc 23 40 b4 bc db ca 63 bc 3a 67 c4 bb
       -0.018813476 -0.022003239 -0.013903345 -0.005993751
000330 38 bf 23 bd b4 23 f3 bc 9f d1 19 3b a2 ff 1f 3d
       -0.039977282 -0.02968011 0.0023470891 0.03906215
000340 33 62 30 bc 18 b1 e7 3b 40 47 30 bc 6a 55 b3 3c
       -0.0107656 0.0070706718 -0.010759175 0.021891315
000350 a1 c0 d4 3c 05 70 66 bc 8c 19 52 be 16 e7 1f bd
       0.025970759 -0.0140647935 -0.20517558 -0.03903874
000360 39 76 7b 3c c4 9f e5 3a 60 b8 b1 ba 6e 39 94 3c
       0.015348011 0.0017518927 -0.0013558976 0.01809379
000370 b1 eb 10 3d c3 a3 23 bd 35 63 a0 bb c5 c6 e7 3c
       0.035381023 -0.039951097 -0.004894639 0.028293023
000380 d8 6d 37 bd 4a ff 27 bb b0 00 4e 3d 91 a9 c7 bc
       -0.04478249 -0.0025634342 0.050293624 -0.024372848
000390 33 00 f6 3c 1a 25 6d 3d f5 f4 20 bd 03 73 e3 3a
       0.030029392 0.05789671 -0.03929611 0.0017353002
0003a0 6e 6d 03 bc 79 c9 a7 bc 05 92 bf 3c 69 ab ea ba
       -0.008021696 -0.020481812 0.023385057 -0.0017903867
0003b0 78 0d 3a bd cc 59 66 bc e2 58 0f 3b fa 93 83 3d
       -0.045423 -0.014059495 0.0021873047 0.06424709
0003c0 84 3c 31 3c df 29 20 bd fa 11 8e 3c ee ca 9a bc
       0.010817651 -0.03910243 0.017342556 -0.018895593
0003d0 26 0e b2 3a 92 0a a5 3c 29 12 5b bd c9 83 20 be
       0.0013584539 0.020146642 -0.053484116 -0.15675272
0003e0 a6 73 ff 3b 01 bb e4 bc 5e 28 37 bd c8 3b 20 3e
       0.007795769 -0.027921202 -0.04471623 0.15647805
0003f0 7a fe 74 3d 00 b2 2c b9 30 e2 fc 3b d6 63 0c 3d
       0.059813 -0.00016469508 0.0077173933 0.0342749

layer3.bias f4 [2]
000000 27 1a e6 bd f3 56 54 3d
       -0.11235457 0.051840734
