models/a2c_critic_acrobot.pth (torch, 141207 bytes, 5 tensors)

layer1.weight f4 [256, 6]
000000 07 f9 1e be 68 05 2e be 50 1f f0 3e 11 75 6c be
       -0.15524684 -0.1699425 0.4689889 -0.23091532
000010 3c ab c5 bd 76 fb 3a 3c 43 dc 4b be 70 df 92 bd
       -0.09651801 0.011412492 -0.19908242 -0.071715236
000020 86 35 88 3e cb 51 bc 3e a7 bb 1c 3e 0d 18 bc 3e
       0.26603335 0.36781153 0.15305959 0.367371
000030 4b 46 09 3d b9 65 91 be b8 79 1c be 13 bf e6 be
       0.033514302 -0.2839792 -0.15280807 -0.45067653
000040 52 8b f1 3e 2d 5b 8e 3e af 24 30 be 78 bb bd bc
       0.47176605 0.27803937 -0.17201494 -0.023160681
000050 e2 ca 19 3e 92 33 90 be 4a 95 16 3e f0 78 7a 3e
       0.150188 -0.28164345 0.14705387 0.24460196
000060 96 21 0e 3d ac ef aa 3e 24 f0 cf 3e f4 72 62 bc
       0.0347 0.3338598 0.406129 -0.013821352
000070 3e 71 06 be 9d d4 23 bd 90 ae 8e be ba 48 9b 3e
       -0.13129136 -0.039997686 -0.27867556 0.30328923
000080 67 7f 33 be 8d 1c cb 3e c1 ef 36 3d 6b 10 82 3d
       -0.17529069 0.3967022 0.04466224 0.06350788
000090 b3 bc 35 3e 65 de 21 be 3c 19 b1 3e a4 df bd 3c
       0.17747764 -0.15807493 0.34589565 0.02317793
0000a0 e0 71 10 bd 94 2d 90 bd 45 5a 98 3e c5 fc de bd
       -0.03526485 -0.07039943 0.2975637 -0.10888056
0000b0 de d5 b6 3e a7 b9 98 3e fe d9 f1 bb fe 26 b7 bd
       0.35710043 0.29829141 -0.007380723 -0.08942984
0000c0 a5 e7 83 3e 14 08 2d 3e 67 95 ce 3e dc d4 44 bd
       0.25762668 0.16897613 0.4034836 -0.04805456
0000d0 24 77 60 3e 0a 5a 8f 3d 8b 4d da b8 42 f3 02 3e
       0.21920449 0.069995955 -0.000104094936 0.12788108
0000e0 1c 0b 6d 3e c8 94 bb be 68 f9 9a bd d5 63 a6 3e
       0.23148769 -0.3663695 -0.07567102 0.3249804
0000f0 3d 66 e8 bd 6f 98 a2 3e 32 c6 50 3e 1e 38 9f 3d
       -0.113476254 0.31756923 0.20388106 0.077743754
000100 ff 9b 05 3e 37 24 c8 3e 9b 9f 4a be 3f 98 87 3e
       0.13047789 0.3909013 -0.19787447 0.26483342
000110 a6 e4 15 3e 87 b2 40 bc a1 7e a6 3e a0 86 35 be
       0.14638004 -0.011761314 0.32518485 -0.17727137
000120 b3 88 d3 be 9d 15 16 3e 05 67 83 3d c7 db 4d be
       -0.4131523 0.14656682 0.06416134 -0.2010337
000130 1c 08 5c be cb 17 ff 3d 79 9b ef 3e 99 0b 7a be
       -0.21487468 0.1245571 0.46798304 -0.24418487
000140 54 92 e3 3e 7d c0 f4 3d 04 b7 ba 3e 10 36 8f 3e
       0.44447577 0.11950777 0.36467755 0.27970934
000150 17 1b fd 3d 53 a7 9c 3e ad b6 1c 3d e6 b0 50 bd
       0.123586826 0.30596408 0.03826015 -0.050949953
000160 54 fb b0 be 69 39 12 be 8e 6b a4 be a0 7a b4 bd
       -0.34566748 -0.14279713 -0.32113308 -0.08812451
000170 f4 f4 81 3e c7 95 96 bc 0f 5e c7 3d 38 95 cb 3e
       0.25382197 -0.018381966 0.09734737 0.39762282
000180 a0 e3 f2 3e 29 88 af 3e 27 ff 84 3e c4 3f db bd
       0.4743929 0.3428357 0.25975916 -0.10705522
000190 00 cd 1a 3e 48 19 6d 3a 52 2a 00 3f 33 ba 8e 3c
       0.15117264 0.00090446 0.50064576 0.017422771
0001a0 f1 67 d9 3e 3e 01 51 3e d6 8e 87 3d 76 ce 75 be
       0.42462113 0.2041063 0.06619041 -0.2400454
0001b0 b5 74 b4 be 71 05 4a 3e 98 b8 81 3e 6d 62 5a 3e
       -0.3524529 0.19728638 0.25336146 0.21326609
0001c0 65 a3 83 3e 38 26 af be e0 fc 2e 3e 40 52 10 3e
       0.25710598 -0.34208846 0.17088652 0.14093876
0001d0 f0 84 c3 be 74 18 61 be 86 f8 33 bd 85 80 89 be
       -0.3818736 -0.21981984 -0.043938182 -0.26855865
0001e0 33 2f f1 3d c8 ca 6b be 7a 98 3a 3e 46 69 a0 be
       0.11776581 -0.23026574 0.18222228 -0.31330317
0001f0 2f 72 40 be 02 96 9b 3e 76 ca de 3e 48 0d c1 3d
       -0.18793558 0.30387884 0.4351384 0.09426361
000200 13 d1 79 bd 4a 82 b8 3e 54 dc 63 3d 77 72 6c 3d
       -0.060990404 0.36036903 0.055630043 0.05772635
000210 a3 5f 9c 3e a8 f8 62 3b 0b a2 88 be 7e 6f 62 3e
       0.30541715 0.0034633074 -0.2668613 0.22112843
000220 b8 41 ae 3e 8c 59 8a be a1 09 00 3e 6a fc c6 bc
       0.34034514 -0.27021444 0.12503673 -0.024290282
000230 a7 cd 13 be 14 75 b3 3d 68 d9 b7 3e 7b 54 e4 3d
       -0.14433919 0.08762565 0.35908055 0.11148926
000240 75 a4 9d bd 75 4a a0 3e 7c 3e 96 be d7 d2 ae be
       -0.07697383 0.31306806 -0.29344547 -0.34145233
000250 5b 73 1c 3e 62 a0 84 3e 92 9b 43 3e 12 7b 91 3e
       0.1527838 0.25903612 0.19102314 0.28414208
000260 f7 a4 94 bc 25 19 5e bd 61 92 f0 bc 8a 13 5c be
       -0.018145068 -0.0542232 -0.029366674 -0.21491829
000270 ce db 18 3e d3 01 51 bc 87 8d 44 3e f6 05 89 3e
       0.14927599 -0.012756783 0.19194613 0.2676236
000280 ea 10 a9 be 51 99 a8 be 53 0a ee bd 3a bf a9 be
       -0.33020717 -0.3292947 -0.11623063 -0.33153707
000290 34 ab 89 3d 3c 23 3d 3e 31 76 a2 be 97 36 a2 be
       0.067221075 0.18470472 -0.31730798 -0.31682274
0002a0 b4 cd d3 be 58 37 c7 bd d2 27 d7 bc f6 d6 07 be
       -0.41367877 -0.09727353 -0.026264105 -0.13265595
0002b0 bc d2 27 be c1 76 c3 be c2 b5 54 be f7 df 68 be
       -0.16388983 -0.3817654 -0.2077246 -0.22741686
0002c0 d5 99 ae be 81 37 d0 be d6 82 90 be 20 5c bf be
       -0.3410174 -0.40667346 -0.2822482 -0.37374973
0002d0 0c 3c 98 bd 62 59 bd 3e ed a9 b8 3d 7e 01 53 3e
       -0.07433328 0.36982256 0.09016786 0.20606038
0002e0 f5 63 e4 bd aa d8 5e 3e eb a2 2e 3e 61 b5 6f be
       -0.11151878 0.21762338 0.17054336 -0.23409034
0002f0 04 d6 27 be ae 04 bd 3e ab 51 de be 56 be 55 be
       -0.16390234 0.36917633 -0.43421683 -0.20873389
000300 66 7e 8b 3e c7 91 90 3e 73 01 55 bd 88 17 ad be
       0.27244872 0.2823622 -0.052003335 -0.33807015
000310 13 21 c0 bd fd fd b1 be 9c c3 c5 3d 1f 2f dc bd
       -0.093813084 -0.3476409 0.0965645 -0.10751175
000320 7b 9d 05 3e cb de 89 3d 46 c9 3c 3e 7a d4 a3 be
       0.13048355 0.067319475 0.18436155 -0.31998044
000330 a1 7e c5 3d 4b 97 d9 be 86 6b 80 be f0 af 4e 3e
       0.09643293 -0.4249824 -0.25082034 0.20184302
000340 62 63 55 be 88 23 22 3e 80 62 07 be 99 95 3f bd
       -0.20838693 0.15833867 -0.13221169 -0.046773527
000350 e0 20 52 bc c7 ef 53 3d 58 8c 93 be 3c 78 81 3e
       -0.012825221 0.05174234 -0.2881801 0.25287044
000360 b1 1c b6 be 63 24 90 3e 66 a9 b7 be 52 4f 2a be
       -0.35568765 0.2815276 -0.35871428 -0.16631821
000370 57 da c8 be 92 9f 75 3e 0e 45 1c bd bc 19 13 be
       -0.3922908 0.23986652 -0.038151793 -0.14365286
000380 8f 04 2b 3e 94 2e b9 bd 8f be ae 3e b1 fd ae 3e
       0.16700958 -0.09042087 0.3412976 0.34177926
000390 3d a9 68 bd 84 c1 de 3e 8a 04 a3 3d 85 e6 26 be
       -0.056802023 0.43507016 0.0795985 -0.16298874
0003a0 61 21 a2 be e2 03 47 3e fd ca 55 3e 45 3f 61 3e
       -0.3166609 0.19435075 0.20878215 0.21996792
0003b0 9d 2c 68 3d 95 b3 83 be 38 8a 9b be 09 83 a4 be
       0.05668317 -0.25722948 -0.3037889 -0.32131222
0003c0 cd ff 86 be 5e 32 a9 bd 10 bd 6d 3e a6 f0 25 be
       -0.26367036 -0.0826156 0.23216653 -0.16205081
0003d0 98 91 9e 3e 16 6b 1a be a5 8f c2 3e 6b da cb 3e
       0.30970454 -0.15079913 0.38000217 0.39815077
0003e0 9f 58 43 3b e7 21 85 be 2a ff 67 3e d4 43 ea bd
       0.002980746 -0.26002428 0.22655931 -0.114387184
0003f0 7b eb 41 bd 43 e7 ab be 5e 07 7f be 64 77 cc 3e
       -0.047343712 -0.33574876 -0.24905154 0.39934838

layer1.bias f4 [256]
000000 b1 67 82 3e 5f f8 eb bd 9c 73 1f 3e 33 25 2f be
       0.25469735 -0.115219824 0.15571445 -0.17104034
000010 5b a4 91 3e 95 de e7 3d 73 73 f2 3e 31 2e 5a 3d
       0.28445706 0.11321751 0.47353706 0.053266708
000020 3f 50 24 3e 16 11 15 bc b3 20 c1 be 4c 55 df be
       0.16046236 -0.009098312 -0.3772026 -0.43619764
000030 91 47 76 be ce 77 96 3e 81 98 40 be 81 44 10 be
       -0.24050738 0.2938828 -0.18808176 -0.14088632
000040 5d 8c 0a 3f ff 3c 8c 3d 65 aa 17 be 75 05 d8 3e
       0.5412043 0.068475716 -0.14811094 0.42191663
000050 16 5c a0 be 72 a7 05 3f 09 72 ab 3e aa aa af be
       -0.31320256 0.52208626 0.3348544 -0.34309894
000060 20 c6 c0 be 62 4a 31 be 14 d7 9e 3e d1 0a 83 3e
       -0.37651157 -0.17313531 0.31023467 0.2559419
000070 b1 3b fc bd 0b 7b ab bd 16 53 a1 3e 7b 34 a6 bc
       -0.12316073 -0.08373078 0.31508702 -0.020288697
000080 54 ea 6b be 51 70 68 be 52 c9 fd 3d 6f 96 00 3e
       -0.23038608 -0.22699095 0.123919144 0.12557386
000090 ac b9 be 3e cd 4c 3a be aa d8 40 be c3 60 8f 3e
       0.3725103 -0.1819336 -0.18832651 0.2800351
0000a0 a4 57 c4 bd a5 50 16 be 7e 59 2f bd 0b c1 fe 3d
       -0.095870286 -0.14679201 -0.042809956 0.12439164
0000b0 04 88 9c 3e cf 89 88 bd e0 f0 9d 3e 5e dd b3 be
       0.30572522 -0.0666691 0.30847836 -0.35129827
0000c0 fc 2b 01 3f 72 b2 87 be 22 49 6a 3d 85 64 b4 bd
       0.5045774 -0.2650333 0.05719865 -0.08808235
0000d0 49 f0 38 bd 99 d4 c8 be 92 3b b8 3d 6d eb 85 be
       -0.04515103 -0.392247 0.08995737 -0.26156178
0000e0 70 a4 1a be 25 28 63 3c 59 33 6a be b6 9b a0 be
       -0.1510179 0.013864552 -0.2287115 -0.31368798
0000f0 fd a3 c9 bd e8 f0 7c be 79 0e 9f 3c c6 d0 7b 3e
       -0.098457314 -0.24701273 0.01941608 0.2459136
000100 97 3d 3e 3d da d5 0a 3d 7d 27 de 3c d3 4a 9c 3e
       0.046445455 0.03389535 0.027118439 0.30525836
000110 c5 5e b3 bd 0f bc ca bd 33 4b 8f 3e 19 76 96 3d
       -0.0875831 -0.098991506 0.2798706 0.07346744
000120 70 e5 aa 3e 14 4e 92 bd 1c 2a b0 3d 1b 5e 56 be
       0.33378172 -0.071437985 0.08601782 -0.20934336
000130 ee 47 80 3e 55 11 d6 3e 5a 5e c6 be e8 ce 88 3e
       0.25054878 0.41810098 -0.3874386 0.26720357
000140 66 fc 9f be fa 89 07 3f 08 22 ad 3e 7f e2 7e 3e
       -0.31247252 0.5294491 0.33815026 0.24891089
000150 5e 70 65 be ca 98 9c 3d ed 31 a3 be c4 38 b8 be
       -0.22406146 0.0764633 -0.31874028 -0.3598081
000160 fb 69 d2 3d 3b b8 80 3d 45 31 0d be 91 06 10 be
       0.102741204 0.06285139 -0.13788326 -0.14065005
000170 7d e1 a2 3e 2c 83 9d be d0 2d b0 3d 71 f8 a5 3e
       0.3181266 -0.3076414 0.08602488 0.32416108
000180 e3 e1 b6 bc ac c2 8b be aa 0f 7f 3e be 71 cb 3e
       -0.022324508 -0.2729696 0.24908319 0.39735216
000190 9a 6f 84 3c 00 e6 5c bd f5 a2 e0 3e 01 21 ba 3e
       0.016166497 -0.053930283 0.43874326 0.36353305
0001a0 95 25 a0 bd 2f 0e 08 3e 0d 66 e8 3e c3 41 36 3e
       -0.07819668 0.1328666 0.4539036 0.17798524
0001b0 12 c7 6a be 9e d2 65 be cf 9d d8 be c4 6c 9e be
       -0.22927502 -0.22443625 -0.42307898 -0.30942357
0001c0 32 fc 77 be 29 a9 d4 be e7 8d 66 3e ce 39 83 be
       -0.24217299 -0.4153531 0.22515069 -0.2563004
0001d0 c1 31 ee be d4 47 0b 3f b2 24 7e be e7 e0 7b be
       -0.46522334 0.54406476 -0.24818686 -0.24597512
0001e0 31 cf 60 be 5b 89 aa 3e 92 79 a7 be bf 9a 09 be
       -0.21954037 0.3330792 -0.32709938 -0.13437937
0001f0 31 9f 80 be f6 d7 c3 3e f2 5b 8d be 3c 86 74 bd
       -0.25121453 0.38250703 -0.2760921 -0.05969833
000200 37 1c c3 be f9 2c 82 be 12 c3 a7 3e 0a 77 69 be
       -0.38107464 -0.25424936 0.32766014 -0.22799316
000210 57 06 00 3e fb 6b 85 3e d0 0e 1d 3f 83 35 10 be
       0.12502418 0.26058945 0.6135073 -0.14082913
000220 04 5e 83 be cd 73 9e 3d 7b f8 f4 3e 40 f0 78 3e
       -0.25657666 0.07736931 0.47845826 0.24310398
000230 36 f4 dc bd fb 1e 93 be ab fa a5 3e 61 c4 8d be
       -0.10788767 -0.28734574 0.32417807 -0.27688888
000240 26 f6 84 be 13 8f a9 3d 17 2c c8 3e 83 02 a0 be
       -0.25969046 0.08279242 0.39096138 -0.31251916
000250 ce ec 3a bc fb 91 d0 be c5 1d 19 3e 99 da 83 bd
       -0.011408998 -0.40736374 0.14952762 -0.064381786
000260 cc 3d 92 bd 55 71 9d 3e 60 f6 94 3e 06 f0 68 3e
       -0.07140693 0.30750528 0.2909422 0.22747812
000270 24 22 95 3d 04 80 0c 3e 3b a6 b5 be bd 73 0c 3e
       0.072819024 0.13720709 -0.35478386 0.13716026
000280 d2 78 19 be 54 2f 66 3d 98 c2 f5 3e 3a 90 2d 3e
       -0.14987496 0.05619748 0.48000026 0.1694955
000290 4c 78 e8 bd 98 b5 06 3e 0c 6a 29 3f c6 87 9d 3e
       -0.1135107 0.1315521 0.6617744 0.3076765
0002a0 9f e8 1e 3d 6e 1c 04 be 2e 36 be bd bd 93 bd 3e
       0.038796064 -0.1290147 -0.09287678 0.37026778
0002b0 16 bd a8 be 39 bb 44 be 98 f9 b6 be c9 06 13 be
       -0.3295676 -0.19212045 -0.357373 -0.14358057
0002c0 c6 c0 9d be 1b cb 19 3e b4 4d 3e be 65 59 93 3d
       -0.30811137 0.15018885 -0.18584329 0.07194785
0002d0 d4 5e 61 be f4 d0 b6 3e 65 ab 79 be cc c7 56 3d
       -0.2200883 0.35706294 -0.24381788 0.052436635
0002e0 08 60 ed be 26 ad 9c be da 3d 97 be d9 64 ae 3e
       -0.4636233 -0.30600852 -0.29539376 0.34061316
0002f0 d9 59 ae 3d b8 f4 46 be d8 88 d2 3c 38 86 e0 3e
       0.08513231 -0.1942929 0.025700018 0.438524
000300 4c 80 98 be b8 87 a3 bd c6 7f 97 be 16 c5 92 3e
       -0.29785383 -0.07984871 -0.2958967 0.2866599
000310 1f 0a 62 bd 91 0c 87 be d5 f6 7f 3d 10 7d 4a 3e
       -0.055185433 -0.26376775 0.062491257 0.1977427
000320 a4 3e 91 3d 8e e9 31 be 33 27 bd be 94 14 2b be
       0.07092026 -0.1737425 -0.3694397 -0.16707069
000330 59 2c 14 be 2a a1 98 3e 0e 88 08 3e 50 ab 5b bc
       -0.14470042 0.29810458 0.1333315 -0.013407543
000340 f8 e5 e3 be 70 36 33 3c 5d 07 21 be 16 1e 6e 3e
       -0.4451139 0.010938272 -0.15725465 0.23253664
000350 b0 eb 8c be a5 c4 c6 3e 33 04 0d be 34 8b 6c 3e
       -0.27523565 0.38821903 -0.13771133 0.23099977
000360 7a 3c 60 3b 98 ad 0c 3f 32 92 b5 be 37 3b ce be
       0.0034215734 0.54952383 -0.354631 -0.40279552
000370 b8 f5 c3 be f8 ba f5 3e a4 24 60 bd 74 34 ad be
       -0.38273406 0.47994208 -0.054722443 -0.3382908
000380 56 73 97 be df 1e a2 3e b4 11 b4 bd 99 60 4b be
       -0.29580182 0.31664178 -0.08792439 -0.19861068
000390 a3 a3 f5 3d 37 24 9e 3e ca f8 20 bd 8a d3 0d 3e
       0.11994102 0.30887005 -0.039299764 0.13850227
0003a0 ce 0b 2a 3e 31 be e8 3e 5d 42 95 3e a5 da 9c 3e
       0.16606066 0.45457605 0.29152194 0.30635563
0003b0 15 11 6e 3e ea 41 1f 3f a2 4f 39 3e 57 47 44 3d
       0.23248704 0.6220995 0.18096784 0.047919597
0003c0 10 b0 62 be 08 65 d1 3e 12 ee ad 3e 32 12 ba 3e
       -0.22137475 0.40897393 0.33970696 0.36342007
0003d0 3e 47 ce 3e 60 d5 01 3e c1 7f 79 be da 0a 7e bd
       0.40288728 0.12679052 -0.2436514 -0.062022068
0003e0 e9 14 b1 3e 32 15 92 3e 0b 63 8c 3e e2 9c c2 3e
       0.34586266 0.28531796 0.27419314 0.38010317
0003f0 a5 45 8b be 31 3d 05 3e 58 cc 40 be 69 ca 8a 3b
       -0.27201572 0.13011624 -0.18827951 0.004235555

layer2.weight f4 [128, 256]
000000 a1 5c 9e bd 22 25 33 bd ad b5 c2 3c 8a 41 1f bd
       -0.07732511 -0.043736584 0.02376827 -0.038880862
000010 d8 6a ac 3d f9 e2 d1 3c a9 fa fc 3d 46 c5 b9 3d
       0.08418816 0.025620924 0.12352497 0.0907083
000020 9c 04 3f 3c a2 5d 13 bd 98 ff ac bd a8 12 d6 3c
       0.011658814 -0.035977967 -0.08447188 0.026131943
000030 51 82 13 bd ad 01 26 3d ac f1 96 bc c5 57 a1 bd
       -0.03601295 0.040528942 -0.018425785 -0.07878069
000040 b2 35 ed 3d 7d 48 b5 3c 41 33 2a 3d ed 51 28 bb
       0.11582507 0.022129292 0.041552786 -0.0025683597
000050 12 6f e4 bc 2d 6f 0e 3e 78 45 07 bb 67 a3 47 bc
       -0.027884994 0.13909598 -0.0020640772 -0.012184954
000060 d5 61 0e bd 87 6b 0e 3d 1b 5a 2a 3d fd ab 18 bd
       -0.03476127 0.034770515 0.041589838 -0.037273396
000070 23 1a 0d bd fc ca a8 bc 40 47 0d bd 3f 39 62 3c
       -0.034448754 -0.020604603 -0.034491777 0.013807594
000080 53 6f 3d 3d da 9e 4b 3d cc f6 90 3c 06 44 80 3c
       0.046248745 0.04971204 0.017695807 0.015657436
000090 06 62 b1 3c fe 3a 1f bd 59 3a 08 bd 1e 49 ac 3d
       0.021653187 -0.03887462 -0.03325877 0.084123835
0000a0 af 3b 49 3d 91 83 8d bc 66 0d 71 3d 9b 0c a6 3c
       0.049129184 -0.01727465 0.05885067 0.020269683
0000b0 b5 99 e5 3b ef 61 86 bd 98 12 8d bd 12 1c 1b bd
       0.0070068487 -0.06561648 -0.06888312 -0.037868567
0000c0 10 bc 5f 3d 4b 02 80 3d 09 90 9e bd 05 a8 44 3d
       0.05462271 0.06250437 -0.07742316 0.0480118
0000d0 14 18 44 3d 88 21 06 bb bc 07 4e bd 2f a8 53 bd
       0.047874525 -0.0020466764 -0.050300345 -0.051674064
0000e0 52 b3 7d bd a3 a0 c8 3c 9c 8c 77 bd 3f 74 5f bd
       -0.06193859 0.02449066 -0.06043683 -0.05455422
0000f0 48 4d ec bb 02 5d 2c bc 74 ac 1c bd 2d 47 79 b9
       -0.007211361 -0.010520222 -0.0382504 -0.00023773006
000100 f0 fb 6a bd 9f 9c 9f bc 19 49 3a bd ae 9a 4d 3c
       -0.057369173 -0.019483862 -0.045479868 0.012549086
000110 7d 02 06 3c 50 05 52 bd cf 19 b7 3d 08 db 1e 3c
       0.008179304 -0.051274598 0.089404695 0.009695776
000120 ee 83 b5 3c c1 db 3d bc f1 3e 64 3c 63 01 29 3b
       0.022157636 -0.011588038 0.013931022 0.002578818
000130 8e 13 45 3d 0d 63 23 3d ab 05 66 3b 73 12 2c bc
       0.048114352 0.039889384 0.0035098593 -0.0105024455
000140 c3 99 9c bc 33 3f d0 3d b0 56 88 bc 39 7d 20 bd
       -0.019116288 0.10168304 -0.016642898 -0.03918192
000150 a3 7f f8 bc 83 c5 d7 bb 2b b8 d6 bb 73 cc 83 bc
       -0.0303343 -0.0065848245 -0.0065527163 -0.0160887
000160 b8 5b 69 3a 52 f0 e1 3c 19 ed b8 bc b6 8d 83 bc
       0.0008901912 0.027580414 -0.022573994 -0.016058784
000170 47 86 85 3d 57 c6 b7 3c 19 d6 e1 bc 7b 6b e7 3c
       0.06519752 0.022433443 -0.02756791 0.028249493
000180 bc 4d 17 be 16 a8 60 bc 88 7c e8 3c 8d f0 60 3d
       -0.14775747 -0.01371195 0.028379694 0.054916907
000190 40 14 2f 3d a0 5a e1 3c d0 79 50 bd 09 cd 03 bd
       0.04274392 0.027509034 -0.05089742 -0.03217796
0001a0 90 03 6d bc ae 28 22 3b bf a3 bf 3c a4 64 1e bb
       -0.014466181 0.0024743485 0.02339351 -0.0024168873
0001b0 81 b1 10 bd 1f 14 cf bd 29 6f a4 bd dc 0b ed bc
       -0.03532553 -0.1011126 -0.080290146 -0.028936319
0001c0 d3 dc aa 3c 28 0d ce bd d6 8e 16 3d 8c 9c 94 bc
       0.02085725 -0.10061103 0.036757313 -0.018141054
0001d0 eb 30 98 bd 7a e3 97 3c b2 09 bc bc c1 39 17 3d
       -0.07431205 0.018541086 -0.022953842 0.036920313
0001e0 e7 b6 5d bd 79 2e a4 bc 6f da 4e bd 90 10 9d 3c
       -0.054129507 -0.020041691 -0.050501283 0.019172937
0001f0 25 a8 3d 3d 9c 27 df 3d cb 0b 33 3c 12 c6 c4 3c
       0.046302933 0.10896227 0.010928105 0.024020229
000200 fc 35 0e bc 16 d7 c1 3d e4 02 b5 3c 03 0d b6 3c
       -0.008679863 0.094648525 0.022096105 0.022223001
000210 72 71 a5 3c 71 3d 56 3d b0 d6 c3 3d f3 d8 06 bc
       0.020195697 0.05230469 0.09562433 -0.008230436
000220 e2 25 88 3c a5 ad 4f bd 73 0c b3 3c 3a 5b 2b bc
       0.016619626 -0.05070271 0.021856522 -0.010458762
000230 ed c5 2d bd 97 c4 87 bd ee b3 3a 3d 06 ec 12 bd
       -0.042425085 -0.066292934 0.04558175 -0.03586962
000240 ae 30 81 bd 95 29 1e bb 5e bc 29 3d d1 57 42 3c
       -0.06308113 -0.0024133672 0.041439407 0.011861757
000250 e6 a4 87 bc 49 69 7d bc 4e 47 96 bc 37 a8 48 3d
       -0.016558122 -0.0154669965 -0.018344548 0.048988547
000260 7e 76 77 bd f9 5a e2 3c 84 4a b6 3d df 6b 21 bc
       -0.060415737 0.02763127 0.089009315 -0.009852379
000270 f4 bf 80 3d a5 79 11 bd 34 53 b4 bc b7 14 c5 bc
       0.06286612 -0.0355164 -0.02201233 -0.02405773
000280 7a 4f 6d bd 02 3f 75 3c 2d 9c 4c 3d 9a 59 5c 3d
       -0.057937123 0.0149686355 0.04995363 0.05379639
000290 cb 29 8c 3c 90 74 13 3d 1b 05 6d 3d 6c a2 44 bd
       0.017109772 0.035999835 0.057866197 -0.04800646
0002a0 53 21 ee bc 71 ce 89 3d 41 3a 54 bd 5d 39 b0 3c
       -0.029068625 0.06728829 -0.051813368 0.021511728
0002b0 63 42 e6 ba bb e7 ca bb 32 56 75 bd 12 8d 4a 3d
       -0.0017567392 -0.006192175 -0.059896655 0.04945094
0002c0 d4 bb ca bd 3f 99 56 3d 9f 38 13 bd 65 cd df bc
       -0.098991066 0.05239224 -0.03594267 -0.02731962
0002d0 0a 98 b4 bb ed 41 2c 3d a0 86 84 bd 4c 37 7e bd
       -0.0055112885 0.04205506 -0.0647099 -0.062064454
0002e0 dc 5b 3d 3d a9 9a 43 bd d2 7b 9d bd a0 6e 1a 3c
       0.046230182 -0.047754917 -0.076896325 0.009425789
0002f0 34 85 0e 3d 6d 52 28 3c 3b bd 43 bd a4 17 9f bb
       0.034795 0.010273558 -0.047787886 -0.004855113
000300 c8 1a 7c bd 35 1b 9f bc 8b cc 1b bd b4 8e 7d bb
       -0.061548978 -0.019422153 -0.038036864 -0.0038689794
000310 67 12 1d 3b 80 fb 66 bb 82 32 a6 ba 1e da b5 bc
       0.0023967267 -0.003524512 -0.0012679847 -0.022198733
000320 29 71 0e 3d ff a7 de 3c a4 5a f6 3c 52 13 2c bd
       0.034775887 0.027179716 0.030072518 -0.042010613
000330 4f fd a0 bd 3e df 63 3d 8c 66 c0 3d 7e 00 99 bd
       -0.07860815 0.055632822 0.09394559 -0.07470797
000340 03 c7 2f bc 3a 18 fc 3c 64 0b 34 bd 3a a9 9b 3d
       -0.0107286 0.03077327 -0.043956175 0.07600637
000350 bf 15 d9 3b 3f d9 9c 3d ea 6e b3 3c e5 55 ce 3d
       0.006624907 0.07658624 0.021903474 0.10074977
000360 0f 03 9a bc c0 3d 77 3d cf 99 ae 3c 29 71 57 bd
       -0.018800287 0.060361624 0.021313576 -0.052598152
000370 d6 b1 bf bd ec f0 7c 3d ad 9b 26 bd 2c 35 a8 bc
       -0.093600914 0.0617532 -0.040675808 -0.020533167
000380 a7 aa f4 bc 20 4b 88 3d 27 98 6a bd 75 48 2f 3c
       -0.02986653 0.06654954 -0.05727401 0.010698427
000390 c7 09 f9 3d 3c 97 8c 3d 95 bf d3 bc ba 31 18 3d
       0.12160068 0.06864783 -0.02584819 0.037156798
0003a0 cd 98 3d bd 2e e2 71 3d 34 a6 41 3d e7 72 98 3b
       -0.0462883 0.059053592 0.047277644 0.0046523693
0003b0 32 6f 6a bd 12 13 17 3e 50 a0 a2 3b f4 8d 2e bd
       -0.05723495 0.14753368 0.0049629584 -0.042615846
0003c0 26 64 2e 3d 00 7e 81 3b 7d 1a 60 3c 94 dd 97 3d
       0.042575978 0.003951788 0.01367819 0.074153095
0003d0 be 22 f0 3c ca ce af 3b 9e 66 13 3d 5b 8a 5b bd
       0.029313441 0.0053652273 0.035986535 -0.053598743
0003e0 95 5b 81 bc 11 77 8e 3d 48 06 0a bd 39 ae 31 3c
       -0.01579074 0.06956304 -0.033697397 0.010844761
0003f0 ca 55 73 bc 8a 84 4d bd 07 19 91 bd c0 0e 00 bc
       -0.014851997 -0.050175227 -0.07084852 -0.007816017

layer2.bias f4 [128]
000000 25 f5 55 3e c8 f6 22 3f 65 e1 13 3d 56 2d 9d bc
       0.20894296 0.6365781 0.036103625 -0.019186657
000010 55 59 9c bd b4 a9 b3 bd 5a 53 96 bc 99 5f e0 bc
       -0.07634226 -0.08772603 -0.018350292 -0.027389335
000020 fc ec 84 bd a1 60 4f 3a 5d a9 f8 bc 17 4f 0d 3d
       -0.06490514 0.0007910822 -0.030354196 0.034499254
000030 f8 cb 9d 3d 8b 30 81 3e 04 cd fa 3e bf 71 22 3f
       0.077049196 0.25232348 0.4898454 0.6345481
000040 f7 24 1f 3e ce b8 77 3e fe 84 1d 3d 34 c9 30 bd
       0.15541445 0.24191591 0.03845691 -0.043160632
000050 5b cf 7b bd 39 5d 87 bd 0b 40 59 3e 36 00 90 bd
       -0.061477046 -0.06609578 0.21215837 -0.0703129
000060 41 65 ee 3d 00 b6 29 bd aa 5f bd bd 7b 6b 25 bd
       0.116404064 -0.041433334 -0.09246762 -0.040385704
000070 75 09 0e bd ef a6 d1 3d b5 ac 62 bd c7 df c0 bd
       -0.034676988 0.10236918 -0.055340488 -0.09417682
000080 0c b7 77 bd 3a da de bd e1 5d ae bc 40 68 19 3d
       -0.0604773 -0.10881467 -0.021285 0.037452936
000090 6b ff 41 bd bc f2 15 3d 04 91 a1 bc ab 65 23 bd
       -0.047362726 0.036608443 -0.01972247 -0.03989188
0000a0 8a 6e 00 3d 91 fb 3f bd f4 03 48 3e 75 14 6f bd
       0.03135542 -0.04687077 0.19532758 -0.05836912
0000b0 0a 13 eb 3c d4 27 a1 bd 8c 13 3a 3d a0 41 74 bd
       0.028695602 -0.07868925 0.045428798 -0.059632897
0000c0 02 61 16 bc 90 e0 33 bc 81 9a b1 bc ee 08 5b bd
       -0.009178402 -0.010978833 -0.021680119 -0.053475313
0000d0 3b 76 4a 3a 7e 61 dd 3c 38 ab e3 3c 85 af 54 bd
       0.0007723306 0.027024027 0.027791604 -0.0519252
0000e0 71 d2 03 3d 5b a2 e1 3d 07 b1 fa 3c 6b 1f d0 bc
       0.032183114 0.11017295 0.030601991 -0.025405606
0000f0 9b 88 98 3e 10 2c 7d 3e fa db 37 bd 5f 68 cf 3b
       0.29791722 0.2472384 -0.04488752 0.0063295807
000100 ff 77 a9 bd 5d 03 93 3d 57 08 c7 3e ec 7b 09 bd
       -0.082748406 0.07178376 0.3887355 -0.033565447
000110 5f 37 b9 bc 94 2f d5 3e d3 d3 bc bc 53 c8 91 3d
       -0.02260941 0.41637862 -0.023050224 0.07118287
000120 dd 4f aa 3c f5 3f 66 bd 4a e6 8a ba 12 9d 77 bd
       0.020790035 -0.056213338 -0.0010597196 -0.06045253
000130 c0 62 77 bd 32 45 c9 bc 0d 0a 9b 3d ad eb af bd
       -0.06039691 -0.024569128 0.075702764 -0.085898735
000140 e9 48 49 3e c3 1d ba bb f9 9a f0 3c c5 62 a2 bc
       0.1965672 -0.0056798174 0.029370772 -0.019822488
000150 ec cf 74 bb 54 ad 2d 3d 0b 4d 41 bd 63 41 80 bc
       -0.0037355376 0.042401627 -0.047192615 -0.015656179
000160 09 9b 17 3d 38 63 f4 bc 42 e3 68 3d eb d9 31 3d
       0.037013087 -0.029832467 0.056857355 0.043420713
000170 64 02 f0 bb 0c f4 36 bd 87 a9 40 3d dd e6 52 3d
       -0.0073245037 -0.044666335 0.047036674 0.0514897
000180 62 3f f2 bd 10 92 d4 bd d8 4a c3 3b 69 fe 47 3e
       -0.118284956 -0.10379422 0.00595985 0.19530644
000190 77 78 b6 3d 28 57 de bd 54 b8 82 3d a3 81 56 3d
       0.089096956 -0.108564675 0.06382814 0.052369725
0001a0 fe 06 03 3e 5d fa c0 3d 28 b6 32 3d a3 aa 21 3e
       0.12795636 0.09422753 0.04363075 0.15787749
0001b0 0c a3 14 3e eb 5a 14 bd 15 ef af 3c 68 91 cb bc
       0.14515322 -0.03621952 0.021476308 -0.024849609
0001c0 fd 30 fb 3d e6 db 11 bd 07 50 3d 3e 86 1f 2e 3f
       0.12265203 -0.035610102 0.1848756 0.6801685
0001d0 b5 6f 6f bd 3c 33 91 bd 13 6c ef bc 87 cc 3b 3e
       -0.05845614 -0.0708985 -0.029226338 0.1833974
0001e0 59 62 22 3f 01 15 ff 3d bf 3b 6e bd 2e fc cf 3e
       0.63431317 0.12455178 -0.058162447 0.40622085
0001f0 e2 ff 7f bc d6 eb b3 3d 5c 93 fa 3c 28 1e 91 bd
       -0.015624972 0.087852165 0.030587845 -0.0708583

layer3.weight f4 [1, 128]
000000 81 4f 1e be 16 88 be be 07 62 25 bb e3 ad ef b9
       -0.15460016 -0.372132 -0.002523543 -0.00045715188
000010 eb cc 81 3d 92 32 78 3d 1e 15 8b bd ef 18 9b 3d
       0.06337913 0.060595103 -0.06791137 0.07573115
000020 b6 4d 80 3d ff 6a 59 bd c7 c0 ee 3c 35 31 13 bf
       0.06264822 -0.053080555 0.029144658 -0.5749696
000030 1a 1d d3 be 12 bb 16 bf 80 0a b3 be 14 86 24 be
       -0.4123314 -0.58879197 -0.34968948 -0.16066772
000040 64 ea d9 be e5 37 d2 be 65 dc 3d 3b 79 c4 ea b7
       -0.42561638 -0.4105827 0.0028970477 -2.7986463e-05
000050 30 5f 89 3d fd 79 a3 bc eb 1c b4 be c4 b4 7c 3d
       0.06707609 -0.01995563 -0.35178313 0.06169583
000060 95 2c 20 be 95 18 54 3d 71 54 2f 3d c6 b8 97 3d
       -0.15642007 0.051781256 0.04280514 0.074082896
000070 8b d9 99 3d f2 59 88 be 11 c3 92 3d ca 40 bd 3d
       0.07512196 -0.26631123 0.07166112 0.09240873
000080 1f c2 ac 3d c7 cf b8 3d d3 22 5f 3d bf 55 96 bd
       0.08435463 0.090240054 0.05447657 -0.073405735
000090 e8 12 94 3d 58 6a e8 be f0 3c 44 bd 73 e8 a3 bd
       0.072301686 -0.45393634 -0.047909677 -0.080033205
0000a0 3b 79 1c 3d 64 da 3e 3b 50 23 19 be 31 0d e2 3d
       0.038201552 0.002912187 -0.14954877 0.11037672
0000b0 65 ff 4d bd 4c e3 1b 3d ec 6b da bc d5 bd 9a bd
       -0.05029239 0.038058564 -0.02666279 -0.07555739
0000c0 6e 68 89 3d d5 85 8f bd 50 ec b2 3d a4 43 8e 3d
       0.067093715 -0.07007948 0.08736479 0.06946495
0000d0 d9 96 37 3d b0 f7 4f bd bb c6 6e 39 12 6a 23 3d
       0.044821594 -0.050773323 0.00022771482 0.03989608
0000e0 4a d7 36 bd d3 18 5f be e8 88 9e 3d fb de 45 bd
       -0.04463891 -0.21786813 0.077409565 -0.048308354
0000f0 43 35 16 bf 0f e6 2d bf 27 2f f1 3c 6e 2d 80 3d
       -0.5867502 -0.67929167 0.02944143 0.06258665
000100 1b bf a1 3d 03 d4 31 be 6c 42 e7 bd 69 0b a8 bd
       0.078977786 -0.17366032 -0.11291966 -0.08205301
000110 89 66 93 bd 00 74 83 be 7f b7 ae bc d4 9d e2 be
       -0.071972914 -0.25674438 -0.021327732 -0.44261038
000120 8b fb 02 bf 1e f6 5e bd e3 3d 5d bc 2e 0e ca bc
       -0.51165074 -0.054433934 -0.0135035245 -0.024664965
000130 fc ca 5c 3a b2 40 4e bd 4c ff c0 be 4c cc a9 3d
       0.0008422581 -0.050354667 -0.37694776 0.0829092
000140 67 9e 33 be 51 58 43 3a 34 02 b9 3d 55 c4 00 bd
       -0.17540894 0.000745182 0.09033623 -0.031437237
000150 97 0c 05 bd 20 c1 ca bc 6a a8 91 3d dd c3 c9 3d
       -0.03248271 -0.024750292 0.071122006 0.09851811
000160 f9 7e e2 3c b1 a7 6f 3b 45 40 ca 3c b4 23 10 bf
       0.027648436 0.0036568458 0.02468885 -0.5630448
000170 34 67 a3 3d f9 73 7d 3d 42 4e 34 3d 62 b1 d0 3d
       0.07978669 0.06187818 0.044019945 0.10190083
000180 d9 e9 05 3d a5 79 b1 3b c2 f5 d6 3a 95 d9 c6 be
       0.032693718 0.0054161125 0.0016400146 -0.38837877
000190 18 9a 2c be a3 6e 9a 3d b0 ba c7 bd 76 83 13 bf
       -0.16855657 0.075406335 -0.09752405 -0.5762247
0001a0 86 40 c9 be e2 26 a6 be 0a 56 45 bc 80 b9 cf be
       -0.3930704 -0.3245154 -0.012044439 -0.40571213
0001b0 a8 61 e6 be 97 ad 9a bd 79 02 2c bf 56 c6 ea bc
       -0.4499638 -0.07552641 -0.6719127 -0.028659027
0001c0 b6 d8 26 bf d5 ec 34 bc de 5e a5 be 24 1e 64 be
       -0.65174425 -0.011042793 -0.3229894 -0.22277123
0001d0 a3 9c b6 3c 01 9d 8a 3d 13 b7 21 3d 58 4b d1 be
       0.022291487 0.06768227 0.039481234 -0.40877795
0001e0 6f 59 04 be 2e 70 06 be 54 87 6d bc 15 5b d4 be
       -0.12924741 -0.1312873 -0.014497597 -0.4147574
0001f0 1e 12 42 3b 5b c5 fa be 52 df 07 3d 4b b9 7c 3d
       0.002961285 -0.48978695 0.03317196 0.061700147
