models/a2c_critic_cartpole.pth (torch, 137559 bytes, 5 tensors)

layer1.weight f4 [128, 4]
0	0x38c602c3	9.44189e-05
1	0xbe9127bb	-0.28350624
2	0x3df88f25	0.12136678
3	0xbd1a286c	-0.037636206
4	0x3f0647c2	0.52453244
5	0xbedd4a60	-0.43220806
6	0xbed465ec	-0.4148401
7	0xbe6f1d07	-0.23350917
8	0xbdc54310	-0.09631932
9	0x3e958242	0.2920094
10	0x3ee1ebb1	0.4412513
11	0x3dac9650	0.08427107
12	0xbe8591a4	-0.26087677
13	0x3dbc9dc2	0.092097774
14	0x3dfc29bf	0.1231265
15	0x3d809d6d	0.062800266
16	0x3f122821	0.5709248
17	0xbe372709	-0.17885984
18	0xbeb44be3	-0.35214147
19	0x3c96c94f	0.018406538
20	0x3e601bed	0.21885653
21	0xbec89035	-0.3917252
22	0xbc1102d5	-0.008850773
23	0xbdfb22db	-0.122625075
24	0x3e13c368	0.1443001
25	0xbe38cf35	-0.18047793
26	0x3e0001ad	0.1250064
27	0x3dd01ed6	0.101621315
28	0xbe837b6e	-0.25680107
29	0x3ea04459	0.31302145
30	0x3ef0ed6e	0.47056144
31	0x3e23416c	0.15942925
32	0xbe5ff180	-0.21869469
33	0xbce204a9	-0.027590113
34	0x3ec7da23	0.39033613
35	0xbdc2be9e	-0.095090136
36	0xbeffd1d3	-0.4996477
37	0xbdc22043	-0.0947881
38	0x3f1f58c7	0.6224484
39	0x3e155191	0.14581896
40	0xbe622356	-0.22083792
41	0xbe8ba443	-0.2727376
42	0x3c036331	0.008019255
43	0xbe35d08b	-0.17755334
44	0x3e11e5b0	0.14247775
45	0xbe5f22d3	-0.21790628
46	0xbc34c207	-0.011032588
47	0xbe323b46	-0.17405424
48	0xbe370093	-0.17871313
49	0xbea1bbef	-0.31588694
50	0x3e8cf3cd	0.27529755
51	0x3e580836	0.21096882
52	0xbf06fa3f	-0.52725595
53	0xbe3b2007	-0.18273936
54	0xbed362dc	-0.4128636
55	0x3db10edf	0.086454146
56	0xbebb1d8b	-0.36545977
57	0x3ddba0f5	0.107240595
58	0xbe346ed8	-0.17620409
59	0x3c1a90f9	0.009433978
60	0xbeaba75d	-0.33526126
61	0x3c179b7c	0.009253379
62	0x3e5c7162	0.21527627
63	0xbddc02f5	-0.107427515
64	0xbc23ec20	-0.010005027
65	0x3e2de7a6	0.16982898
66	0xbeae8a1c	-0.34089744
67	0x3e4e94af	0.20173906
68	0x3eb9434a	0.3618415
69	0x3f254f58	0.64574194
70	0x3f5e20c2	0.86768734
71	0x3ecaf4f4	0.3964001
72	0x3ec5a996	0.38605946
73	0xbf05ffb0	-0.52343273
74	0xbeff7f9f	-0.49902055
75	0xbecd77a0	-0.4013033
76	0xbd0fbc39	-0.035091612
77	0xbeaa24a9	-0.33231094
78	0xbe31c5a5	-0.17360552
79	0xbe5f911b	-0.21832697
80	0xbe1461ac	-0.14490384
81	0xbea2aa0c	-0.3177036
82	0xbf00cf08	-0.50315905
83	0xbea5a128	-0.32349515
84	0xbd138838	-0.03601858
85	0xbebe14af	-0.37125155
86	0xbe8ea4a2	-0.2785998
87	0xbe7863b0	-0.24256778
88	0x3ebab445	0.3646566
89	0x3f120761	0.5704251
90	0xbe4e4c89	-0.20146383
91	0x3ec39a85	0.38203827
92	0x3e8b6714	0.2722708
93	0xbed75446	-0.42056483
94	0x3eeb67d0	0.4597764
95	0xbeb9b0da	-0.3626774
96	0x3e6d7a1c	0.23191112
97	0x3e3545e0	0.17702436
98	0xbe87cc46	-0.26523036
99	0xbcdcbc64	-0.0269453
100	0xbe10dfa6	-0.14147815
101	0x3e33bd6d	0.17552729
102	0x3e2b2cd6	0.16716322
103	0x3c17b9b3	0.009260583
104	0xbd7e623e	-0.06210541
105	0x3e0dda8b	0.13852899
106	0x3f0ef1f2	0.5583793
107	0x3eb7f8b8	0.35931945
108	0x3e998529	0.29984406
109	0x3ed363fe	0.41287225
110	0x3f24aeee	0.6432942
111	0x3eae0a61	0.33992293
112	0x3e8cfa0a	0.27534515
113	0xbecfc90d	-0.40583077
114	0x3ec399a3	0.38203153
115	0xbc902381	-0.017595055
116	0xbdb65c62	-0.089043394
117	0xbe500359	-0.20313777
118	0x3e34baf2	0.17649439
119	0xbe61edaa	-0.22063318
120	0xbdd2160d	-0.10258112
121	0x3dcc0b0b	0.09963044
122	0x3e32bf1d	0.17455716
123	0xbd9604c6	-0.07325129
124	0x3e1790d6	0.14801344
125	0x3f1b687f	0.60706323
126	0x3f0dac90	0.55341434
127	0x3ed95947	0.42450926
128	0xbe4f881b	-0.20266764
129	0x3edfdfaf	0.43725345
130	0x3f3c7155	0.7361043
131	0x3e778089	0.24170126
132	0xbec6f800	-0.38861084
133	0x3ec100d2	0.37695938
134	0xbe94263b	-0.28935418
135	0xbe4fa8ad	-0.20279188
136	0x3d95a3e3	0.073066495
137	0xbda21d68	-0.07915765
138	0x3e957d2d	0.29197064
139	0xbe882dd3	-0.2659746
140	0xbec6ce11	-0.3882909
141	0x3e612899	0.21988143
142	0x3d977019	0.07394428
143	0x3dabf40f	0.0839616
144	0xbe6efc22	-0.23338369
145	0x3e005122	0.1253095
146	0x3e771490	0.24128938
147	0xbd377d5c	-0.044797286
148	0xbe93b48d	-0.28848687
149	0x3eca18c0	0.39472008
150	0x3f3c57ef	0.73571676
151	0x3e69b8a2	0.22824338
152	0x3f347846	0.7049602
153	0x3ee6f523	0.451089
154	0x3dba267c	0.090893716
155	0xbdbacf90	-0.09121621
156	0xbd7122f9	-0.058871243
157	0xbd7077cf	-0.05870801
158	0x3f11b49f	0.5691623
159	0xbccf6013	-0.025314366
160	0x3e17a346	0.14808378
161	0x3e39297c	0.18082231
162	0x3ee90910	0.45514727
163	0x3dfe9153	0.12430062
164	0xbe25a4c3	-0.16176133
165	0xbea2ad71	-0.3177295
166	0xbe47666b	-0.19472663
167	0xbdb2dcff	-0.08733558
168	0xbf1207d9	-0.57043225
169	0x3edd9378	0.43276572
170	0x3e311b69	0.17295612
171	0x3eae4845	0.34039512
172	0x3eb7ef0d	0.3592457
173	0x3ed17e57	0.40916702
174	0xbecf8ebd	-0.40538588
175	0x3e8a420f	0.27003524
176	0x3ee8e64e	0.4548821
177	0x3dcca83c	0.09993026
178	0xbefa798c	-0.48920858
179	0xbe8d56ad	-0.2760519
180	0x3f13e8f9	0.57777363
181	0xbec087b3	-0.3760353
182	0x3f0427e1	0.5162335
183	0xbe82953c	-0.25504482
184	0xbdfaaa89	-0.12239558
185	0xbe3e5609	-0.18587507
186	0x3dd83522	0.10557009
187	0x3cf1b9bb	0.029507509
188	0x3db0b0a3	0.08627441
189	0xbeaed00a	-0.34143096
190	0x3e8d4109	0.2758868
191	0xbdaaaa40	-0.08333254
192	0xbe882158	-0.2658794
193	0xbd89cf8e	-0.06729041
194	0xbdd28924	-0.10280064
195	0xbe9b2820	-0.3030405
196	0xbd1b6455	-0.03793748
197	0x3df8c270	0.12146461
198	0x3e603c55	0.21898015
199	0xbe1f1829	-0.1553656
200	0xbec31080	-0.38098526
201	0x3eef35a6	0.46720618
202	0x3eba9939	0.36445025
203	0x3e1e285b	0.15445082
204	0xbe802037	-0.25024578
205	0xbefc33c6	-0.4925825
206	0xbf3dd226	-0.74148786
207	0xbec8f597	-0.3924987
208	0x3e711761	0.23544075
209	0xbdb90002	-0.090332046
210	0x3e2f91b5	0.17145427
211	0x3dde5dc6	0.108577296
212	0xbe5d69d7	-0.21622406
213	0x3f10f2a0	0.56620216
214	0x3ec03f08	0.3754809
215	0x3e8c6ed9	0.2742832
216	0x3d59c95e	0.053170554
217	0xbd906a56	-0.07051532
218	0x3e4f73e3	0.20259051
219	0x3cefbbd3	0.029264366
220	0xbee9ff31	-0.45702508
221	0xbef06340	-0.46950722
222	0xbed7b4ff	-0.42130277
223	0x3c298a4b	0.010347913
224	0x3bbd3a54	0.0057747755
225	0x3cbc5704	0.022990711
226	0x3e0acdf4	0.13555127
227	0x3ce78403	0.02826119
228	0xbe50751b	-0.20357172
229	0xbe445e46	-0.19176587
230	0x3eb0b8e5	0.34516063
231	0x3c3bf8f1	0.0114729265
232	0xbf0436c9	-0.51646096
233	0x3e5c7fcd	0.21533127
234	0x3f3b10da	0.7307259
235	0x3e189609	0.14900984
236	0xbe494433	-0.19654922
237	0xbea59577	-0.32340595
238	0x3ee0446a	0.43802196
239	0x3de7b347	0.11313491
240	0x3e9c5d53	0.3053995
241	0x3e39426e	0.18091747
242	0x3cdb95e3	0.02680487
243	0x3f044c62	0.5167905
244	0x3e2a5f85	0.16638
245	0xbee4374c	-0.44573438
246	0x3f0f2106	0.55909765
247	0xbe85f5eb	-0.26164183
248	0xbdab3a5e	-0.08360742
249	0x3e849648	0.25895905
250	0x3ecee8d1	0.40412
251	0x3eac04ce	0.33597416
252	0x3d8818cf	0.06645357
253	0x3de2b84c	0.11070308
254	0xbee1d620	-0.44108677
255	0xbd91619b	-0.07098695

layer1.bias f4 [128]
0	0xbea72bbb	-0.3265055
1	0xbe111921	-0.14169742
2	0xbdd73fe1	-0.10510231
3	0xbbf7bcc7	-0.007560346
4	0xbeef9b24	-0.4679805
5	0x3e139f73	0.14416294
6	0x3e4010fe	0.18756482
7	0xbef25ee2	-0.47338015
8	0x3e3f6a92	0.18692997
9	0x3e9f80da	0.31152993
10	0x3f045092	0.5168544
11	0x3e6080bc	0.21924108
12	0xbe9c1848	-0.30487275
13	0xbe2535fa	-0.16133872
14	0x3e935267	0.28773805
15	0xbe8dbcee	-0.27683204
16	0x3ee0b1ff	0.438858
17	0xbdd32976	-0.103106424
18	0xbe9cc48b	-0.306187
19	0x3ed8adb0	0.42320013
20	0xbc1c085a	-0.009523476
21	0xbd52db65	-0.051478762
22	0xbe32ea7a	-0.17472258
23	0x3e4f31f2	0.20233896
24	0xbec95b88	-0.39327645
25	0x3d89c2c9	0.067266054
26	0xbdab1f8d	-0.08355627
27	0xbe1d1a37	-0.15342031
28	0x3e982df7	0.29722568
29	0x3ed2cb7d	0.41170874
30	0x3dea0427	0.11426573
31	0xbdee6e8e	-0.116421804
32	0xbde63bd9	-0.11241884
33	0x3e19c063	0.15014796
34	0x3e697874	0.22799855
35	0xbd6ef455	-0.058338482
36	0x3ea47242	0.32118422
37	0x3c290ae2	0.010317536
38	0xbed90881	-0.423893
39	0xbd89cdb9	-0.067286916
40	0xbd90d39c	-0.07071611
41	0xbdeca840	-0.11555529
42	0xbd0236d7	-0.03179058
43	0xbe5d126a	-0.21589056
44	0xbeb1ecf7	-0.34751102
45	0xbe63804b	-0.22216909
46	0x3e9bc4d7	0.30423614
47	0x3e9705cd	0.29496613
48	0xbee33698	-0.4437759
49	0x3eb450c0	0.35217857
50	0x3ebc4c4b	0.36776957
51	0xbd950499	-0.072762676
52	0xbe4a57bd	-0.19760032
53	0xbdfda2f9	-0.123846
54	0x3e4242d5	0.18970807
55	0xbce21398	-0.027597234
56	0x3e899ff6	0.26879853
57	0x3c03cfd6	0.008045157
58	0xbb5cc015	-0.0033683826
59	0xbe6e6b7f	-0.23283194
60	0xbe7b2d29	-0.24528946
61	0x3de96b9f	0.1139748
62	0x3f1094ea	0.56477225
63	0x3ecad8ba	0.39618474
64	0x3df606a0	0.12012982
65	0xbeebdc74	-0.4606663
66	0x3e8cc62c	0.27494943
67	0xbe8721b9	-0.26392916
68	0xbd40db25	-0.047083993
69	0xbda474ca	-0.08030088
70	0xbebca230	-0.3684249
71	0x3e1438fe	0.14474866
72	0xbdb10063	-0.08642652
73	0xbe4a260b	-0.19741075
74	0xbe5059c5	-0.20346744
75	0xbe8d989e	-0.276555
76	0xbe75bb24	-0.2399717
77	0xbe4673e9	-0.19380154
78	0xbe57cc25	-0.21073969
79	0xbefb971c	-0.49138725
80	0xbe56e9cc	-0.20987624
81	0x3e8c4ebb	0.27403817
82	0xbdaf9aed	-0.085744716
83	0x3e9585db	0.29203686
84	0x3e9e99bc	0.30976665
85	0x3e9683cd	0.2939743
86	0x3db26cc8	0.087121546
87	0xbde12356	-0.10993068
88	0xbd8e1daf	-0.069392554
89	0xbd09f2bd	-0.03367876
90	0xbeab6847	-0.33477995
91	0xbdc9c4b5	-0.09851972
92	0x3f00a31d	0.5024889
93	0xbe856e7a	-0.2606085
94	0x3ec70420	0.38870335
95	0xbe8d0665	-0.2754394
96	0x3ebf3702	0.37346655
97	0xbde47f66	-0.11157112
98	0xbe553346	-0.2082034
99	0xbd696bd4	-0.0569876
100	0xbf01ec2b	-0.5075099
101	0xbf1c4a30	-0.610507
102	0x3e9c77b1	0.30560067
103	0xbddc4bbd	-0.107566334
104	0xbef84a5d	-0.48494235
105	0x3d4dcd46	0.050244592
106	0x3eb9e455	0.36307016
107	0x3e509496	0.20369181
108	0x3eb056d8	0.34441257
109	0x3cbb82eb	0.022889575
110	0xbf07f3b6	-0.5310625
111	0x3e88c964	0.2671615
112	0xbe30a773	-0.17251377
113	0x3cd1f8c4	0.025631316
114	0xbe6f77b9	-0.23385514
115	0x3ce57ef0	0.02801463
116	0xbeaeac9e	-0.3411607
117	0x3ee5882b	0.4483045
118	0xbdd20ddc	-0.1025655
119	0x3d00fe4e	0.031492524
120	0x3de9b7ab	0.11411985
121	0x3e182057	0.14856087
122	0xbebef501	-0.37296298
123	0xbe1b20dc	-0.15149254
124	0x3ecd2af8	0.40071845
125	0x3ddb772e	0.10716091
126	0xbe74ba1d	-0.23899122
127	0xbd561d18	-0.05227384

layer2.weight f4 [256, 128]
0	0xba3b4180	-0.0007143244
1	0xbc0707c0	-0.008241594
2	0x3d0e695a	0.03476844
3	0xbd5d0932	-0.053963847
4	0xbd8c2c93	-0.06844439
5	0x3ccf105c	0.025276355
6	0x3caa4442	0.020784501
7	0xbd8805d2	-0.06641735
8	0xbdd9afe4	-0.106292516
9	0x3ce4ac04	0.027914055
10	0xbb720dd7	-0.0036934519
11	0xbd8ea750	-0.06965506
12	0xbdd5e212	-0.1044351
13	0xbd81814a	-0.06323488
14	0xbdeb3454	-0.1148459
15	0xbd2b45a8	-0.041814476
16	0x3d37197d	0.044702042
17	0xbd6c69e5	-0.057718176
18	0x3d0e6654	0.034765556
19	0xbdd0ee4d	-0.10201702
20	0xbd85f327	-0.06540518
21	0x3d14ee39	0.03636
22	0xbd14ff05	-0.036376018
23	0x3cc780a3	0.024353331
24	0xbacb92c0	-0.0015531406
25	0x3d4e2638	0.050329417
26	0x3b9fe09b	0.00487907
27	0xbd260a17	-0.040536966
28	0xbd8f72fd	-0.07004354
29	0x3d8c7fcc	0.06860313
30	0x3c5336b6	0.012891462
31	0x3c890a85	0.016728649
32	0x3b26b426	0.0025436967
33	0xbd9ab474	-0.0755395
34	0xbdafd0a5	-0.08584718
35	0x3c1e5228	0.009663142
36	0x3d425102	0.047440536
37	0xbdd11538	-0.10209125
38	0xbda54eb0	-0.08071649
39	0x3cfeeba5	0.031118223
40	0xbd82186f	-0.063523166
41	0x3d4a7ddf	0.049436446
42	0xbccab6ab	-0.024745306
43	0xbc6e3d75	-0.01454102
44	0x3d7bf4f6	0.06151291
45	0x3d15a974	0.036538556
46	0xbdbe3541	-0.09287501
47	0xbdf4c273	-0.11951151
48	0xbda45461	-0.080239065
49	0xbd55ce5a	-0.052198745
50	0xbd144e03	-0.03620721
51	0xbd9db309	-0.07700164
52	0xbdea6f76	-0.11447041
53	0x3d0a2e72	0.0337357
54	0xbc244097	-0.010025165
55	0xbc05f213	-0.008175391
56	0x3d1a4494	0.037663057
57	0xbdc289ea	-0.09498961
58	0xbd84c1ca	-0.06482275
59	0x3d330e5f	0.043714877
60	0x3d56750a	0.05235771
61	0xbc6a0eab	-0.014285724
62	0xbc38d71f	-0.011281758
63	0xbc1cce80	-0.009570718
64	0x3cdfdeb7	0.027327878
65	0xbd043bdd	-0.032283653
66	0x3cc7c999	0.024388121
67	0xbad17100	-0.0015979111
68	0xbd5fe47d	-0.054661263
69	0x3d080ede	0.033217303
70	0xbcbfa324	-0.023393221
71	0x3cd5946a	0.026071746
72	0x3d41ec56	0.04734453
73	0x3b7664e0	0.0037596747
74	0xbd6c2ce6	-0.057660006
75	0x3ccb4bdc	0.024816446
76	0xbd089db6	-0.03335353
77	0xbd956669	-0.07294924
78	0xbc0633c0	-0.008191049
79	0xbd70dc87	-0.05880406
80	0xbdd3d44a	-0.10343225
81	0xbd687b3a	-0.056758143
82	0xbdb16fcf	-0.08663904
83	0xbd78d1a5	-0.060746808
84	0x3c90c09b	0.017669966
85	0xbdc7a681	-0.09748555
86	0xbcf16211	-0.029465707
87	0xbc11c7d9	-0.008897745
88	0xbcac961c	-0.021067671
89	0x3d387fd6	0.04504379
90	0xbdab1dd2	-0.08355297
91	0xbcb92642	-0.02260125
92	0xbdc187b6	-0.09449713
93	0xbc87c434	-0.01657305
94	0x3d335105	0.043778438
95	0xbd68e29a	-0.05685673
96	0xbda9cb10	-0.08290684
97	0xbd36af23	-0.044600617
98	0x3d420ca2	0.04737533
99	0x3cd0aa7b	0.025471916
100	0x3d9cf8ad	0.07664619
101	0xbca104ec	-0.019655667
102	0xbd132296	-0.035921656
103	0xbd515b56	-0.051112495
104	0xbd72016a	-0.05908338
105	0x3ce809c6	0.028324973
106	0xb939c136	-0.00017714952
107	0x3cfaad1a	0.03060012
108	0xbd8966cf	-0.06709062
109	0xbc8f7616	-0.017512362
110	0xbd8c3da1	-0.06847692
111	0xbc8f27cd	-0.017475033
112	0xbd1d2950	-0.038369477
113	0xbb850200	-0.0040590763
114	0xbcfdc3c6	-0.030977141
115	0xbcb8b35c	-0.022546463
116	0xbd8ec2ae	-0.06970726
117	0xbbe6c97f	-0.007043063
118	0xbcff8c70	-0.031194896
119	0xbdb3e4de	-0.08783887
120	0x3d3ecb5c	0.046580657
121	0xbda5fa03	-0.081043266
122	0xbb6f3100	-0.0036497712
123	0x3a033671	0.0005005366
124	0xbc79f33b	-0.015255745
125	0xbd405c88	-0.046963245
126	0x3ca2ca7d	0.019871945
127	0x3d2f88c2	0.04285503
128	0xbd8b88fc	-0.06813237
129	0xbde900d0	-0.11377108
130	0xbda66d8d	-0.08126364
131	0xbdab1255	-0.08353106
132	0x3d4fb1bd	0.050706614
133	0x3df211a5	0.11819772
134	0x3ca04fae	0.019569244
135	0x3d41e60e	0.047338538
136	0xbac3b8d2	-0.00149324
137	0x3e1944cc	0.1496765
138	0xbca80c0c	-0.020513557
139	0xbcef1171	-0.029183121
140	0xbe2ca08d	-0.1685812
141	0xbdda998e	-0.106738195
142	0x3e076708	0.13222897
143	0xbe3b3419	-0.18281592
144	0x3e144948	0.1448108
145	0xbeb8a3b6	-0.36062402
146	0xbe59115d	-0.2119803
147	0xbccbc5d8	-0.024874613
148	0x3c0e4271	0.008682833
149	0xbe23c2ba	-0.15992251
150	0xbe271caf	-0.16319536
151	0x3ddb1135	0.10696641
152	0x3cf9b826	0.030483317
153	0x3c084194	0.008316416
154	0x3ba9ecc2	0.0051856944
155	0xbe343c03	-0.17601018
156	0x3d811ecd	0.06304703
157	0xbd8b027c	-0.06787583
158	0x3d27db82	0.040980823
159	0xbdcaf40f	-0.09909832
160	0xbe62b600	-0.2213974
161	0xbdacb32c	-0.08432612
162	0x3c65861f	0.014009028
163	0xbd37a770	-0.044837415
164	0xbe1d1779	-0.15340985
165	0xbea641ed	-0.32472172
166	0xbda96c69	-0.08272631
167	0xbdc5ec82	-0.09664251
168	0xbe3f1777	-0.18661295
169	0x3caed6da	0.021342684
170	0xbdf3aeab	-0.1189855
171	0xbe00510b	-0.12530915
172	0xbe44250f	-0.19154762
173	0x3e0cca93	0.13749151
174	0xbd8b5689	-0.06803615
175	0x3d8f28f7	0.06990235
176	0xbce2e63f	-0.02769768
177	0xbdb908d7	-0.09034889
178	0x3d12fd29	0.035885964
179	0xbd4b4e48	-0.0496352
180	0x3dce0a28	0.10060531
181	0xbdbd73e0	-0.09250617
182	0xbd98859f	-0.07447361
183	0x3cf2f535	0.02965794
184	0xbc079b51	-0.008276776
185	0x3d2dcb86	0.042430423
186	0xbdac08eb	-0.084001385
187	0xbdc5bfff	-0.09655761
188	0xbde03e09	-0.10949332
189	0xbdeaa280	-0.11456776
190	0x3e4acf86	0.19805726
191	0x3d9191a7	0.07107859
192	0xbc206838	-0.009790473
193	0xbdb3212d	-0.08746562
194	0xbd851d91	-0.0649978
195	0x3ca07e9b	0.01959162
196	0xbd4792a4	-0.04872383
197	0x3d1ebecd	0.03875618
198	0x3cebd2b4	0.028786995
199	0x3ca59d21	0.020216526
200	0xbe5583c4	-0.20851046
201	0x3dbb50d3	0.09146275
202	0xbe5ad67e	-0.21370885
203	0xbdcecf94	-0.10098186
204	0xbc8a9c48	-0.016920224
205	0xbe0f313b	-0.13983624
206	0xbc64dba8	-0.013968386
207	0x3db01468	0.08597642
208	0xbdc71bff	-0.09722137
209	0xbb4ceca9	-0.003126899
210	0x3d036a21	0.032083634
211	0xbd0cbe42	-0.03436113
212	0x3d808f80	0.062773705
213	0xbe13ff61	-0.14452888
214	0x3dfec714	0.12440315
215	0xbe859975	-0.2609364
216	0xbcb757a5	-0.02238066
217	0xbdd36b0f	-0.10323154
218	0xbe47fa23	-0.19529013
219	0xbe2b1d8b	-0.16710488
220	0x3dc0fc80	0.094231606
221	0xbe629e6e	-0.22130749
222	0x3e199e4c	0.15001792
223	0xbdc02470	-0.0938195
224	0x3e884d68	0.26621556
225	0xbe903cb2	-0.28171307
226	0xbdcf9457	-0.101357155
227	0x3ca47b2b	0.020078262
228	0xbc9a67d8	-0.018848345
229	0x3dd706c6	0.10499339
230	0xbccb3369	-0.024804788
231	0xbb303f24	-0.0026893103
232	0x3cb571c0	0.022148967
233	0xbbb8b9d5	-0.0056373873
234	0x3ce99113	0.02851156
235	0xbcbf6d83	-0.023367649
236	0xbc04a409	-0.00809575
237	0x3e066110	0.13122964
238	0xbe09c8d4	-0.13455516
239	0x3d49eac9	0.049296174
240	0xbe1a6b08	-0.15079892
241	0x3d80f2a2	0.062962785
242	0xbdca145e	-0.09867166
243	0xbdc4c4be	-0.09607838
244	0xbe34390b	-0.17599885
245	0xbdd6a283	-0.104802154
246	0xbe324c9c	-0.17412037
247	0xbe0af886	-0.13571367
248	0xbd47cc59	-0.048778865
249	0x3c9c0345	0.019044528
250	0xbda55352	-0.08072533
251	0xbdafdc1b	-0.08586904
252	0x3d8aed38	0.06783527
253	0x3d9438aa	0.0723737
254	0xbd06854a	-0.032841958
255	0xbb2f3b06	-0.0026738062

layer2.bias f4 [256]
0	0xbdcc18ee	-0.099656925
1	0xbd8b0cdc	-0.06789562
2	0x3e0075c5	0.12544926
3	0x3d0c20f8	0.03421113
4	0xbbb01431	-0.0053735008
5	0xbd8f880c	-0.07008371
6	0x3c9cc7d7	0.01913826
7	0xbdb801c0	-0.08984709
8	0xbdf63a9f	-0.120229
9	0xbd426757	-0.047461834
10	0x3d8e2cdf	0.06942152
11	0xbd35b88a	-0.044365443
12	0x3d094b7f	0.033519264
13	0x3c84189a	0.016125012
14	0x3bf62f55	0.0075129666
15	0xbd62f984	-0.055413738
16	0x3cd2b85d	0.025722677
17	0xbdcfec37	-0.10152476
18	0x3d06c144	0.032899156
19	0x3da9d295	0.082921185
20	0xbdd4687e	-0.10371493
21	0xbd8812d8	-0.06644219
22	0xbdc64b0e	-0.09682284
23	0xbdda0bad	-0.10646758
24	0x3d493ecb	0.04913215
25	0x3ca8981e	0.020580348
26	0x3e47649d	0.19471975
27	0xbd09ffd2	-0.033691235
28	0x3d84494b	0.06459292
29	0xbd491d37	-0.049100127
30	0x3db6b843	0.08921864
31	0x3d2e5f82	0.042571552
32	0x3cca7500	0.024713993
33	0xbdc62e7c	-0.09676835
34	0x3c2f4d2a	0.01069955
35	0xbca3438b	-0.019929668
36	0xbdafcde3	-0.08584192
37	0x3bd3758e	0.0064532226
38	0xbc8971d4	-0.01677791
39	0xbdd71374	-0.10501757
40	0x3c79da0b	0.015249739
41	0xbda2667e	-0.07929705
42	0x3d858425	0.06519345
43	0xbd97588c	-0.07389936
44	0xbd898099	-0.06713981
45	0xbd428df9	-0.047498677
46	0xbb65cafc	-0.0035063615
47	0x3c92b5bb	0.017908921
48	0xbd4d2160	-0.050080657
49	0x3d349438	0.044086665
50	0xbdcc9a6b	-0.099903904
51	0xbcd68e44	-0.026190884
52	0x3d7ffef0	0.062498987
53	0xbd6b3930	-0.057427585
54	0x3ce2fad4	0.027707495
55	0x3d19a868	0.03751412
56	0xbbf52dff	-0.00748229
57	0x3c919c11	0.017774614
58	0xbdc6aa0f	-0.09700405
59	0x3e347733	0.17623596
60	0xbd60ea03	-0.05491067
61	0xbdafd536	-0.08585589
62	0x3ef9d4ad	0.4879507
63	0x3d3d7273	0.046251725
64	0xbd21284d	-0.039345074
65	0xba7725eb	-0.00094279525
66	0xbd06b070	-0.032883108
67	0xbd135556	-0.035970055
68	0xbca6906d	-0.02033254
69	0xbd9de320	-0.07709336
70	0x3d8568da	0.065141395
71	0xbd73e759	-0.059546802
72	0xbdee46b5	-0.1163458
73	0x3dc3dad3	0.09563222
74	0xbcf6b929	-0.030117588
75	0x3c9fed4c	0.019522332
76	0x3e28d626	0.16487941
77	0xbe03cc73	-0.1287096
78	0x3d81e734	0.063429266
79	0x3c8aad49	0.016928332
80	0xbcc820b4	-0.024429657
81	0xbc61a4f7	-0.013772241
82	0x3c6f8860	0.014619917
83	0xbcc34dcf	-0.023840813
84	0xbda1518b	-0.07876881
85	0x3e5f5e6a	0.2181336
86	0xbdc6b92a	-0.09703286
87	0xbd770bc0	-0.06031394
88	0xbcc1c4ea	-0.023653466
89	0xbd63104f	-0.055435475
90	0xbce23a74	-0.027615763
91	0x3e8cd561	0.27506545
92	0xbd82470e	-0.06361209
93	0x3dd9167f	0.10599994
94	0xbda218e2	-0.07914902
95	0x3d288b97	0.04114875
96	0x3d2758af	0.04085606
97	0xbb826e17	-0.003980409
98	0xbcb78c19	-0.022405671
99	0xbd52f3c2	-0.051501997
100	0x3dafb9df	0.08580374
101	0x3d2ea4da	0.042637683
102	0x3db39733	0.08769073
103	0x3d159d1d	0.036526788
104	0x3cda2a19	0.026631402
105	0x3df55173	0.11978426
106	0xbdc6b44a	-0.09702356
107	0xbb5eaf23	-0.0033978901
108	0xbdcad0ad	-0.09903083
109	0x3d128dae	0.035779648
110	0xbc896612	-0.016772304
111	0xbc203ca0	-0.009780079
112	0x3db993ac	0.09061369
113	0x3c40cd16	0.011767646
114	0xbcd6a690	-0.02620247
115	0xbcc66d1c	-0.02422195
116	0xbbde7c97	-0.0067897546
117	0xbc800012	-0.015625034
118	0xbcd16080	-0.02555871
119	0xbd6d2803	-0.057899486
120	0x3c334ec6	0.010944074
121	0x3d0e838d	0.034793425
122	0x3e02f192	0.12787464
123	0xbc9bb69b	-0.019007972
124	0x3dbfb891	0.09361375
125	0x3eae04ab	0.33987936
126	0xbcfbc144	-0.030731805
127	0x3d41badf	0.047297355
128	0xbd32396f	-0.043511804
129	0x3d9de87e	0.0771036
130	0xbd76e456	-0.060276352
131	0x3cf2d996	0.029644769
132	0x3ce0d306	0.027444374
133	0x3bb7335f	0.0055908407
134	0x3d8b531a	0.0680296
135	0xbc4524e3	-0.01203272
136	0xbdc50b7a	-0.096213296
137	0xbc7f351c	-0.015576627
138	0x3b509efb	0.003183304
139	0xbcab6248	-0.020920888
140	0xbcc1089d	-0.023563677
141	0xbdbac837	-0.09120219
142	0xbce9710c	-0.028496288
143	0x3c9369dc	0.017994814
144	0xbd71a8ea	-0.05899898
145	0xbdef8e6c	-0.11697087
146	0x3cfb63ed	0.030687297
147	0x3cb12520	0.021624148
148	0xbd67bab9	-0.056574557
149	0x3d9acc30	0.07558477
150	0xbd665cda	-0.056240894
151	0xbcb97c30	-0.022642225
152	0x3da3cb14	0.079977185
153	0xbdece1e2	-0.11566521
154	0x3cd8441f	0.02639967
155	0xbd2653e8	-0.040607363
156	0x3d36adee	0.044599466
157	0xbd37e542	-0.04489637
158	0x3c2db943	0.010603252
159	0x3d8d2ea8	0.068936646
160	0x3b81c4b6	0.0039602173
161	0x3e5a4286	0.21314439
162	0xbdd0764d	-0.10178814
163	0x3dad1ce3	0.08452775
164	0xbc4e96b8	-0.012609176
165	0x3d2a9152	0.041642494
166	0x3e9b7e81	0.30369952
167	0x3c7705b6	0.015077045
168	0xbe1e03ee	-0.15431187
169	0xbde25020	-0.11050439
170	0xbceeb9c6	-0.029141318
171	0xbd8c40de	-0.0684831
172	0xbdec0e4e	-0.11526166
173	0x3c92bcf5	0.017912367
174	0xbc3c70e2	-0.011501523
175	0x3d3424cd	0.04398041
176	0x3e681fe7	0.2266842
177	0x3c8cf9a5	0.017208884
178	0xbcdaf0c3	-0.026726132
179	0xbcc2470f	-0.023715524
180	0x3d136503	0.035985004
181	0xbda183dc	-0.07886478
182	0x3c99b486	0.018762838
183	0xbcd1012c	-0.025513254
184	0xbd25c164	-0.040467635
185	0x3c2f4ecb	0.010699938
186	0xbd4c16d9	-0.049826477
187	0x3d634e75	0.055494744
188	0xbcc87470	-0.024469584
189	0xbdbccf90	-0.09219277
190	0xbe2d17b3	-0.16903572
191	0xbd9d5a43	-0.07683232
192	0xbb2299b0	-0.0024810843
193	0xbb661d42	-0.0035112654
194	0xbc8b26b1	-0.016986223
195	0x3dc19a25	0.09453229
196	0xbc65f763	-0.014036032
197	0xbd969726	-0.07353048
198	0x3db9f06e	0.090790614
199	0xbc976bec	-0.018484078
200	0x3da89dce	0.08233224
201	0x3e0e73af	0.13911317
202	0x3de0ddfe	0.10979842
203	0xbdafbabf	-0.08580541
204	0x3c46bd69	0.01213012
205	0x3c15e9e7	0.009150005
206	0xbc8002f3	-0.015626406
207	0xbdb75710	-0.08952153
208	0x3d6221bf	0.055207964
209	0xbd6c5a2a	-0.057703175
210	0xbd503d0c	-0.05083947
211	0xbce3d438	-0.027811155
212	0xbd80d000	-0.06289673
213	0x3d7df622	0.06200231
214	0x3dcdcb82	0.10048582
215	0x3d85c7fa	0.06532283
216	0xbcf1adb7	-0.029501779
217	0xbd51e4e7	-0.05124369
218	0x3c96d9e9	0.018414455
219	0xbd07678a	-0.033057727
220	0xbdc75b29	-0.09734184
221	0xbc5e5c26	-0.013571775
222	0x3ea4f0a0	0.32214832
223	0xbd1c1b88	-0.038112193
224	0xbd7129dd	-0.058877815
225	0xbd13730a	-0.03599838
226	0x3d005427	0.031330254
227	0x3d933e5a	0.07189627
228	0xbd291aee	-0.041285448
229	0x3ce6ecac	0.028189026
230	0x3d522459	0.051304195
231	0x3d90e24c	0.07074413
232	0x3d72379a	0.059135057
233	0x3d401cbb	0.0469024
234	0xbd954f04	-0.07290462
235	0x3d2d635f	0.042331096
236	0xbd429aeb	-0.047511023
237	0xbd1ee0fb	-0.038788777
238	0x3ce65d73	0.028120732
239	0x3da04b8c	0.078269094
240	0x3cb76f84	0.022392042
241	0xbdbf2dd2	-0.093349114
242	0xbcad828f	-0.02118042
243	0x3d5018f1	0.050805036
244	0xbd205f53	-0.03915341
245	0x3c26b8c4	0.0101758875
246	0x3c8f9216	0.017525714
247	0x3cfd65e7	0.03093238
248	0x3d86c8f8	0.065813005
249	0x3da7b47a	0.0818872
250	0x3e70e644	0.2352534
251	0x3d092c9c	0.03348981
252	0x3c06aee2	0.008220406
253	0x3d451447	0.04811504
254	0xbd174f8a	-0.03694109
255	0x3c718fd3	0.014743763

layer3.weight f4 [1, 256]
0	0xbcac61d4	-0.021042742
1	0xbad10c7c	-0.0015949155
2	0x3d0a7dd0	0.03381139
3	0xbcc3700b	-0.023857137
4	0x3cbe43f2	0.023225758
5	0xbc1626b2	-0.009164499
6	0xbb1a61b2	-0.0023556766
7	0x3ca0e1db	0.019638946
8	0xbc6de582	-0.014520051
9	0xbd19e08f	-0.03756767
10	0xbe8443c6	-0.25832957
11	0x3cc3e1d0	0.023911387
12	0xba997ac6	-0.0011709563
13	0x3ab92760	0.0014126115
14	0xbba0c7d6	-0.004906635
15	0xbcb1836b	-0.02166911
16	0x3d9eb07b	0.07748505
17	0x3d0f4b1f	0.03498375
18	0xbe5981a8	-0.21240866
19	0x3d80bd6a	0.06286128
20	0x3bf44f99	0.007455778
21	0x3d108a64	0.03528823
22	0x3d363346	0.044482492
23	0xbca65e16	-0.020308536
24	0x3d28c5ea	0.04120437
25	0x3d2a4409	0.04156879
26	0xbe6a0591	-0.22853686
27	0x3ca5c638	0.02023612
28	0xbcb7dc9f	-0.022444068
29	0xbce529f2	-0.027974103
30	0x3deb175b	0.11479064
31	0xbe54bb5e	-0.207746
32	0x3c282f47	0.010265178
33	0xbceacecb	-0.02866306
34	0xbc3874de	-0.011258332
35	0x3cf6a222	0.030106608
36	0x3c9a29a1	0.018818678
37	0xbe4cf1b4	-0.20014077
38	0x3b4b8c8d	0.0031059117
39	0xbbe479c0	-0.0069725215
40	0xbce24160	-0.027619064
41	0x3cb7d1fb	0.022438994
42	0x3df489e8	0.11940366
43	0x3d287e3e	0.04113602
44	0xbd6b864c	-0.057501122
45	0xbd4424d0	-0.04788667
46	0xbc74b7fa	-0.014936442
47	0xbb773ab4	-0.0037724199
48	0x3c02e32a	0.00798873
49	0x3b012379	0.0019704981
50	0xbcc2ded4	-0.023787893
51	0x3d411228	0.047136456
52	0x3dd10018	0.10205096
53	0x3c92bffe	0.017913815
54	0xbcab1802	-0.020885471
55	0xbe40fd6b	-0.18846671
56	0xbe50b610	-0.20381951
57	0xbd0a31fd	-0.03373908
58	0x3d6dd09c	0.058060274
59	0x3e3324bf	0.17494486
60	0xbb19b444	-0.0023453394
61	0x3c68c8a6	0.014207995
62	0x3edb2957	0.42804977
63	0x3d438e88	0.04774335
64	0xbe74a346	-0.23890409
65	0xbbdb4f00	-0.006692767
66	0x3d1143ba	0.03546498
67	0xbce15a1c	-0.027508788
68	0x3d0c51d9	0.034257744
69	0xba836ec7	-0.0010027521
70	0xbc28639c	-0.010277655
71	0xbca41337	-0.020028694
72	0x3caa651f	0.020800171
73	0x3d9a2941	0.075274
74	0xbe394bb2	-0.18095282
75	0x3b8fe897	0.0043917405
76	0x3e494c4d	0.19658013
77	0xbca0c8cf	-0.019627003
78	0xbe3c76c6	-0.18404683
79	0xbbf60aed	-0.0075086267
80	0xbe1b5aed	-0.15171404
81	0xbc3aec95	-0.011408945
82	0xbe6651bf	-0.22492121
83	0xbc94a8e8	-0.018146947
84	0xbc3fdd7a	-0.011710519
85	0x3ef0953c	0.46988857
86	0x3c0350f7	0.008014909
87	0x3c3cacd3	0.011515814
88	0xbbca927b	-0.0061820126
89	0x3d783ace	0.060602956
90	0xbc845554	-0.016153969
91	0x3eafe860	0.34356976
92	0xbc6b657e	-0.014367459
93	0x3d6afe6d	0.057371546
94	0xbd38e65f	-0.045141574
95	0x3bc5d830	0.0060377344
96	0xbb6be120	-0.003599234
97	0xbe70169d	-0.23446126
98	0xbe3907da	-0.18069401
99	0x3b81014b	0.0039369217
100	0xbc839289	-0.016061084
101	0x3df99a70	0.1218766
102	0xbe1b0f70	-0.15142608
103	0xbdcf05f2	-0.10108556
104	0xbdd21fe6	-0.102599904
105	0x3d967d3a	0.07348104
106	0xbcb0f3be	-0.0216006
107	0xbd04419e	-0.03228914
108	0xbc232ab9	-0.009958916
109	0xbca46125	-0.020065853
110	0x3b74fa8d	0.0037380785
111	0x3d43fc4a	0.047848023
112	0xbe73624b	-0.23767965
113	0x3d987cc8	0.07445675
114	0xbe540002	-0.20703128
115	0xbcbb7565	-0.022883127
116	0xbca80277	-0.020508988
117	0x3c4824b5	0.012215783
118	0xbdc49861	-0.095993765
119	0xbb8a8d9c	-0.004228307
120	0x3d79ce21	0.060987595
121	0x3d1322c6	0.035921834
122	0x3dd5684f	0.10420286
123	0xbc95e351	-0.01829687
124	0x3d4ff53f	0.050770994
125	0x3ee56236	0.44801491
126	0x3d106836	0.035255633
127	0x3b9ec286	0.0048449663
128	0xbe41fb0c	-0.18943423
129	0xbbf45b89	-0.007457201
130	0x3c2c7f2f	0.01052837
131	0xba600786	-0.0008546043
132	0x3df7a518	0.12092036
133	0xbc292e23	-0.010325941
134	0x3e8a465c	0.27006805
135	0x3c0de0a0	0.008659512
136	0xbc6d8ef7	-0.0144994175
137	0xbd265a38	-0.040613383
138	0xbd5b2ae4	-0.0535077
139	0x3ad70ee3	0.0016407635
140	0xbdc283d9	-0.09497804
141	0x3d712d65	0.058881182
142	0xbc84db26	-0.01621778
143	0x3aa20e86	0.0012363947
144	0x3c1d9690	0.009618416
145	0xbc4a2384	-0.012337569
146	0x3db13d68	0.086542904
147	0xbcfa52d8	-0.030557081
148	0xbd4835c2	-0.048879392
149	0x3e69bf34	0.22826844
150	0x3b281dbf	0.0025652496
151	0xbceb3344	-0.028710969
152	0xbb9662ae	-0.0045894003
153	0x3c4d4e41	0.012530864
154	0x3d250381	0.040286545
155	0xbd18d045	-0.037307996
156	0xbb956f15	-0.004560361
157	0xbe39e1e0	-0.1815257
158	0x3c7921c6	0.015205806
159	0x3d40d3c0	0.04707694
160	0x3a6b931e	0.0008986461
161	0x3e3831e4	0.17987782
162	0xbcb6cf6c	-0.022315703
163	0x3cd9912b	0.02655848
164	0xbcbb4790	-0.022861272
165	0x3dd9a4dd	0.10627148
166	0x3f063004	0.52417016
167	0x3d34826e	0.0440697
168	0xbbfc218f	-0.00769443
169	0xbd328049	-0.043579374
170	0xbdbc2b21	-0.09187914
171	0x3c2ec2b8	0.010666542
172	0x3acf4851	0.0015814399
173	0xbd7acbe1	-0.06122959
174	0xbcc59869	-0.024120526
175	0xbb031117	-0.00199992
176	0x3dbc5a4e	0.09196912
177	0x3d6b4ca7	0.05744615
178	0xbc8a16f3	-0.016856646
179	0x3a8fd4cd	0.0010973454
180	0x3d91d531	0.07120741
181	0xbd665c92	-0.056240626
182	0x3ccb020e	0.024781253
183	0x3ae4c2d3	0.0017453082
184	0x3d7e0c06	0.062023185
185	0x3d9f40ae	0.077760085
186	0x3d0fe985	0.03513481
187	0x3d00cca5	0.031445164
188	0x3d0bba1f	0.034113046
189	0xbd7c7964	-0.061639205
190	0x3e023e72	0.12719133
191	0xbc7f94dd	-0.015599457
192	0x3cd7e345	0.026353488
193	0xbe44fe46	-0.19237623
194	0x3b9d0c14	0.0047926996
195	0x3e3db72a	0.18526903
196	0x3ccd6298	0.025071427
197	0xbc817ee9	-0.015807586
198	0xbb917bce	-0.0044398075
199	0x3ea2d3dc	0.3180226
200	0xbe3a2817	-0.18179356
201	0x3dcfdd35	0.10149614
202	0x3db4aad6	0.08821647
203	0xbd727610	-0.059194624
204	0xbc8eb1a0	-0.017418683
205	0xbd823c86	-0.063592
206	0xbc69d597	-0.014272115
207	0xbe88fe3e	-0.2675647
208	0xbc0f58b6	-0.008749178
209	0x3c016eff	0.007899999
210	0xbd394fb1	-0.045242015
211	0x3d171616	0.036886297
212	0xbcd0018e	-0.025391366
213	0x3c8c8095	0.017151156
214	0x3d686ffe	0.05674743
215	0x3d8f6e99	0.07003517
216	0xbbb0ebc1	-0.005399198
217	0x3c5531f7	0.013012401
218	0xbd32dec0	-0.043669462
219	0x3c63d26d	0.01390515
220	0xbc552eaf	-0.0130116185
221	0xbd787392	-0.06065709
222	0xbe85d843	-0.26141557
223	0x3d21ce84	0.03950359
224	0x3cae1bc8	0.021253482
225	0x3c59f4ae	0.013302965
226	0x3b9cdcb1	0.0047870507
227	0xbe209458	-0.15681589
228	0x3b191d06	0.0023363247
229	0x3c8488cb	0.01617851
230	0xbc3d8592	-0.01156749
231	0xbc5fa96b	-0.013651232
232	0x3dd19d64	0.10235098
233	0x3cb81b79	0.022474037
234	0x3c7c3092	0.015392439
235	0xbe146ca5	-0.1449457
236	0xbbbd756f	-0.0057818214
237	0xbceb4184	-0.028717764
238	0x3d51b865	0.051201243
239	0xbc3be14a	-0.011467287
240	0x3cb2b226	0.021813463
241	0x39286162	0.00016058006
242	0x3aa0b264	0.0012260196
243	0x3cc18c69	0.023626523
244	0xbe6a729f	-0.22895287
245	0x3cba4652	0.02273861
246	0xbca1980b	-0.01972582
247	0x3b41954b	0.0029538448
248	0x3bd9caa2	0.00664647
249	0x3de41b2e	0.111379966
250	0x3eb3c687	0.35112402
251	0xbd226520	-0.03964722
252	0x3ce070b9	0.0273975
253	0x3c8c9d4f	0.017164854
254	0xbc1529f8	-0.009104244
255	0x3b0dec90	0.0021655895
